Normal/td3_actor.pth (torch, 528103 bytes, 6 tensors)

l1.weight f4 [400, 24]
0.178097 0.17996712 -0.02931606 0.17792632 -0.023713669 0.029525017 -0.12034176 0.11556089
0.20237434 -0.16544025 0.16540612 0.017559797 0.14598227 0.04927239 0.121569484 -0.0056772144
0.18049976 0.05331475 -0.07214982 0.075174525 -0.070903726 -0.0007960519 -0.060070883 0.15822901
-0.14722824 -0.068093166 -0.035206296 -0.14737917 0.014433227 -0.22571997 0.16930857 -0.18346953
0.16996424 0.01691357 -0.09221217 0.11010699 0.0064130407 0.1770133 0.03102088 -0.055669174
0.063550964 -0.04664807 0.09461345 0.19095293 0.12670237 -0.08051297 0.12740451 0.04627056
0.12325467 -0.11927507 -0.18646273 -0.07828011 -0.17477266 0.15730627 0.03949432 0.095968686
0.08438508 -0.022648608 0.176968 -0.16423295 0.015627138 -0.12027257 0.08362052 -0.04961817
0.083225876 -0.02184806 0.18997912 -0.1003036 -0.101056926 -0.1010638 0.20415221 0.08852255
0.20773661 -0.16428056 -0.18974912 -0.16195479 -0.14982069 0.0753763 0.061714288 0.16966769
-0.09491056 -0.1515273 0.11405482 -0.09381809 0.12708749 -0.03795119 0.12572981 -0.14963643
-0.0940495 0.07119466 0.05211582 -0.043080255 0.13063581 0.1477267 -0.13866556 -0.09939709
0.1911317 -0.06513189 -0.06841954 -0.20153219 -0.121209845 0.04722405 -0.031136665 -0.14488284
0.008981971 -0.14363247 -0.17255734 -0.116629966 -0.18014607 -0.12582545 0.20823216 0.042741857
0.067090854 -0.18619521 -0.12987497 -0.06375525 0.036108114 -0.17542382 -0.083759524 -0.11800884
0.009338777 -0.07082842 -0.006151721 -0.14724877 -0.14245705 -0.1207107 -0.0798811 -0.18047142
0.18071026 -0.047804963 0.17454207 0.05470669 -0.18067144 0.15241557 -0.044888176 -0.06697055
-0.15816174 -0.19165637 0.06967818 -0.033313274 0.090747 -0.15624006 0.16252589 -0.13903533
-0.018221624 0.04510615 0.12294703 0.15983139 0.2098759 -0.16394107 0.027902378 -0.090961784
-0.0018319562 -0.14957133 0.1793759 -0.17207159 0.1083349 0.09772829 0.094550274 -0.08214001
0.21375796 0.073075525 0.05447787 -0.15166582 0.113908775 -0.0024217647 -0.06586017 0.20284463
0.06558632 -0.1059949 -0.0868887 -0.01783971 0.13505067 -0.059681896 -0.13646676 -0.07952574
-0.1317731 0.062857576 0.1499686 -0.21135162 0.039330907 0.12663864 0.059853602 -0.04985372
0.12938099 0.13010998 0.09916778 -0.013028661 -0.031211823 0.04466009 -0.013692255 -0.038508248
0.13047756 0.1754242 -0.020207752 -0.045702755 0.0029786387 -0.0121878935 0.04907375 0.05720245
-0.18539715 -0.07532952 0.17189896 0.07951758 -0.01015264 -0.123067625 -0.124884196 -0.18284765
-0.06653681 0.06893358 0.13015398 0.09424358 -0.18043433 -0.12275261 -0.03221419 0.1974594
0.029528089 -0.052862182 0.08444928 -0.07774712 -0.13212052 0.14898762 -0.092815615 -0.040920105
-0.20306358 0.13661431 0.15465152 0.07439268 -0.14233051 -0.20145828 -0.16578534 0.15221544
0.09800118 0.17177138 0.106934495 0.051662225 -0.0019989237 -0.15523764 -0.1748879 -0.19092725
0.0725174 -0.11261004 -0.05325228 -0.10639696 -0.04925646 -0.13089567 -0.12203469 0.072810434
-0.07212509 0.13700023 -0.052732952 -0.138463 -0.022849655 -0.11037706 -0.073795535 -0.20567074
00000000: 0f5f 363e 4d49 383e 3c28 f0bc 5132 363e
00000010: 2b43 c2bc 73de f13c be75 f6bd 30ab ec3d
00000020: 383b 4f3e 2b69 29be 3960 293e 90d9 8f3c
00000030: 607c 153e d8d1 493d 6cf9 f83d ed07 babb
00000040: eed4 383e 9160 5a3d 49c3 93bd 1af5 993d
00000050: f935 91bd 24ae 50ba e30c 76bd c906 223e
00000060: 00c3 16be 6e74 8bbd 7a34 10bd 91ea 16be
00000070: 5779 6c3c 2323 67be 3a5f 2d3e 70df 3bbe
00000080: 1b0b 2e3e 548e 8a3c bcd9 bcbd c67f e13d
00000090: 7c24 d23b f942 353e 801f fe3c 5c05 64bd
000000a0: 0227 823d 0c12 3fbd b2c4 c13d 2a89 433e
000000b0: 44be 013e fce3 a4bd 5476 023e 3386 3d3d
000000c0: f26c fc3d 7d46 f4bd 16f0 3ebe 5351 a0bd
000000d0: 9bf7 32be e514 213e ccc4 213d 3b8b c43d
000000e0: 16d2 ac3d 9389 b9bc 1937 353e af2c 28be
000000f0: 7c04 803c 7751 f6bd 3c41 ab3d 6c3c 4bbd
00000100: 5472 aa3d b4fa b2bc e389 423e f96b cdbd
00000110: eff6 cebd 8afa cebd 470d 513e 504b b53d
00000120: e8b8 543e 2a39 28be 984d 42be 7ad7 25be
00000130: 986a 19be e45e 9a3d 1fc8 7c3d 5ebd 2d3e
00000140: 7860 c2bd f929 1bbe 9395 e93d b323 c0bd
00000150: 3923 023e b572 1bbd 51bf 003e 4b3a 19be
00000160: 069d c0bd 82ce 913d 6677 553d ec74 30bd
00000170: 65c5 053e ab45 173e 58fe 0dbe b490 cbbd
00000180: 07b8 433e de63 85bd 8b1f 8cbd 745e 4ebe
00000190: de3c f8bd 016e 413d 5212 ffbc 2b5c 14be
000001a0: 1e29 133c 6414 13be dfb2 30be b1db eebd
000001b0: 3678 38be 63d8 00be d03a 553e 1612 2f3d
000001c0: ee66 893d f5a9 3ebe f2fd 04be 1d92 82bd
000001d0: 1ae6 133d 4da2 33be 1d8a abbd 9eae f1bd
000001e0: ab01 193c 7e0e 91bd 6094 c9bb 62c8 16be
000001f0: 43e0 11be 2c37 f7bd b498 a3bd 80cd 38be
00000200: 1c0c 393e 23cf 43bd 28bb 323e 1f14 603d
00000210: ef01 39be d412 1c3e aadc 37bd db27 89bd
00000220: 27f5 21be 9141 44be 6fb3 8e3d 8073 08bd
00000230: 90d9 b93d 65fd 1fbe 306d 263e 475f 0ebe
00000240: 8445 95bc 3ac1 383d a7cb fb3d d7aa 233e
00000250: b5e9 563e 2be0 27be 8793 e43c 2c4a babd
00000260: 401e f0ba 3a29 19be 51ae 373e 8933 30be
00000270: b0de dd3d c525 c83d 93a3 c13d 0639 a8bd
00000280: 5ee3 5a3e 9fa8 953d 3024 5f3d 494e 1bbe
00000290: 0149 e93d 78b6 1ebb b2e1 86bd 81b6 4f3e
000002a0: 1f52 863d db13 d9bd b4f2 b1bd 9524 92bc
000002b0: b94a 0a3e 0175 74bd f1bd 0bbe 64de a2bd
000002c0: 87ef 06be 79bb 803d 5e91 193e 8f6c 58be
000002d0: 7219 213d 8fad 013e 0d29 753d 6a33 4cbd
000002e0: 737c 043e 8d3b 053e 7a18 cb3d 2a76 55bc
000002f0: f0af ffbc 80ed 363d 7b55 60bc d3ba 1dbd
00000300: e99b 053e 67a2 333e ba8a a5bc d032 3bbd
00000310: 4435 433b bbaf 47bc 8e01 493d 1e4d 6a3d
00000320: c0d8 3dbe 5d46 9abd 4806 303e 1dda a23d
00000330: 4257 26bc e10a fcbd 49c3 ffbd 6a3c 3bbe
00000340: 7344 88bd 0c2d 8d3d 1647 053e c702 c13d
00000350: c7c3 38be b865 fbbd 07f3 03bd cc32 4a3e
00000360: e4e4 f13c 0486 58bd bef3 ac3d e239 9fbd
00000370: 9a4a 07be 3690 183e 1d16 bebd d79b 27bd
00000380: e6ef 4fbe 9fe4 0b3e f85c 1e3e 305b 983d
00000390: 17bf 11be 144b 4ebe a2c3 29be 5dde 1b3e
000003a0: d8b4 c83d d6e4 2f3e 7900 db3d c59b 533d
000003b0: 6000 03bb 9ef6 1ebe d015 33be 6f82 43be
000003c0: 0184 943d 18a0 e6bd 101f 5abd a6e6 d9bd
000003d0: 24c1 49bd 8409 06be 53ed f9bd a31d 953d
000003e0: 52b6 93bd ca49 0c3e 82fe 57bd 3fc9 0dbe
000003f0: 332f bbbc 5e0d e2bd 1d22 97bd 5a9b 52be

l1.bias f4 [400]
0.1063397 0.021272935 -0.16030549 -0.06633361 0.13236411 0.12789246 0.09812586 0.20249628
-0.10612862 -0.0608278 -0.041744154 -0.051493928 0.1898967 -0.2042099 0.06323523 0.22919104
-0.11338703 0.18314353 -0.1593921 0.03527705 -0.09324389 0.08243421 0.06854204 0.034864716
-0.020856278 -0.07594264 -0.19767483 0.045347176 0.19864619 -0.13087234 -0.05131269 0.059695527
0.13010725 0.10074788 0.15725584 0.03617403 -0.027815232 -0.16940449 -0.20402655 -0.14478084
0.12554915 0.18111211 0.22012617 0.16474006 0.037287973 0.16350152 0.09891208 -0.13821238
-0.011514047 -0.1765444 0.20287055 0.05926286 0.20316769 -0.02714248 0.16076775 0.10908502
-0.024914483 0.019217212 0.15474705 -0.03534691 0.1835 0.072769366 -0.050772015 -0.06446593
-0.09928799 0.15838046 0.17592148 -0.07275866 -0.19081394 0.14463009 -0.03845624 -0.1676396
0.06639539 -0.026235864 0.17501321 0.055904556 -0.10966058 -0.027918896 -0.1465797 0.098909296
0.082276106 0.13374934 -0.13862285 -0.113623165 -0.111258075 -0.18100043 -0.16063058 -0.17427039
0.17010339 -0.03546243 -0.010472396 0.08762613 0.050394204 0.11333517 -0.14504357 0.19547155
0.009626644 -0.10373971 0.1508204 -0.16851994 -0.12202887 0.14012869 0.1008947 -0.05860088
0.0064854515 -0.006699088 0.09168051 0.06199167 0.07074404 0.18927845 -0.14038932 -0.15702005
-0.048735604 -0.064891405 -0.13254862 0.2024778 0.19084312 0.18224293 -0.123175755 0.0071425126
-0.13079795 -0.06854271 0.19017735 0.025591293 0.07931483 -0.19744182 0.09966488 0.15023299
-0.06279359 0.18159565 0.0923101 -0.15980276 -0.13304526 0.024759607 -0.17862533 -0.14229478
0.102947146 -0.037199818 0.0013017919 -0.05573643 0.13797659 0.1967177 0.15211892 -0.16788623
-0.042272683 0.1279216 0.1443499 -0.01735171 0.13078018 -0.00824829 0.030135673 0.15869796
0.1708578 -0.12026756 -0.093125395 0.063897066 0.15016158 -0.019235402 0.20174482 -0.003159998
-0.076429896 0.0037383102 -0.17373772 0.08432609 -0.17167136 0.21063013 -0.14000154 0.1506542
-0.13540636 -0.0120602455 -0.11617671 0.11549045 0.13894363 -0.19145831 -0.17952494 0.045045894
0.02097381 0.025633318 0.07802728 -0.009389608 0.19947201 0.0049449434 -0.0704216 0.09245144
-0.13502781 -0.084264584 0.06478127 -0.092953004 -0.17631494 0.1301249 0.07845959 0.052212734
0.095188655 -0.18172728 -0.09320855 -0.079162516 0.21106061 -0.09017847 -0.13410044 -0.05901812
0.044772472 0.09675057 0.16710842 0.16447414 0.039725803 0.20105186 0.13858259 0.1361837
-0.18008488 0.047706444 -0.036109872 -0.16703822 -0.11463442 0.14500251 0.08029638 0.1973561
0.15123585 0.020470586 0.21016915 0.04518135 -0.021217555 -0.08728843 0.14496873 0.094975
0.16059002 -0.03703804 -0.18974733 0.0676911 0.017256083 -0.12052777 0.07621826 -0.026113154
0.19813347 0.026550474 -0.09519562 0.1929453 0.03075248 -0.03640287 0.096862406 0.21587932
0.124023825 0.002309801 0.18476924 -0.06449616 0.17797142 -0.08721862 0.029211408 0.19016081
0.076827645 -0.04277838 0.11914193 0.11738579 -0.17606923 0.00025752443 -0.15886976 -0.039253227
00000000: a1c8 d93d 9444 ae3c 1f27 24be ead9 87bd
00000010: 758a 073e 3ef6 023e 36f6 c83d 2f5b 4f3e
00000020: f659 d9bd 9226 79bd ebfb 2abd 4ceb 52bd
00000030: 4874 423e 661c 51be 7981 813d 0eb1 6a3e
00000040: 7637 e8bd fa89 3b3e af37 23be ab7e 103d
00000050: a7f6 bebd 44d3 a83d c55f 8c3d 4ece 0e3d
00000060: c9da aabc d187 9bbd 456b 4abe f6bd 393d
00000070: e869 4b3e 6603 06be 412d 52bd 4c83 743d
00000080: d63a 053e e854 ce3d ad07 213e 382b 143d
00000090: c5dc e3bc 5f78 2dbe 56ec 50be 6e41 14be
000000a0: f58f 003e 7475 393e c168 613e 9eb1 283e
000000b0: 46bb 183d f16c 273e 6b92 ca3d 8c87 0dbe
000000c0: 6aa5 3cbc 0ec8 34be 4cbd 4f3e 9dbd 723d
000000d0: 310b 503e e859 debc 4da0 243e f867 df3d
000000e0: 7519 ccbc 6a6d 9d3c 0376 1e3e ecc7 10bd
000000f0: 6de7 3b3e 1b08 953d 51f6 4fbd b706 84bd
00000100: 8057 cbbd 7d2e 223e c324 343e 7e02 95bd
00000110: bb64 43be e919 143e 4a84 1dbd b7a9 2bbe
00000120: 4efa 873d 98ec d6bc aa36 333e 2dfc 643d
00000130: ba95 e0bd 2bb6 e4bc fd18 16be f590 ca3d
00000140: 6080 a83d 96f5 083e 26f3 0dbe 43b3 e8bd
00000150: 46db e3bd 2d58 39be 587c 24be f073 32be
00000160: 952f 2e3e 0e41 11bd 6a94 2bbc 5475 b33d
00000170: 276a 4e3d 451c e83d 4d86 14be b229 483e
00000180: 12b9 1d3c 7c75 d4bd aa70 1a3e 7e90 2cbe
00000190: 46ea f9bd e57d 0f3e e1a1 ce3d 7a07 70bd
000001a0: e983 d43b 0684 dbbb fec2 bb3d faea 7d3d
000001b0: 40e2 903d 36d2 413e 38c2 0fbe ddc9 20be
000001c0: fc9e 47bd c9e5 84bd d3ba 07be 5756 4f3e
000001d0: 616c 433e e49d 3a3e 9243 fcbd bd0b ea3b
000001e0: e6ef 05be 1f60 8cbd dabd 423e d5a4 d13c
000001f0: d06f a23d 302e 4abe 1a1d cc3d add6 193e
00000200: ed99 80bd 36f4 393e 140d bd3d 56a3 23be
00000210: 043d 08be a9d4 ca3c 8fe9 36be b9b5 11be
00000220: f4d5 d23d d65e 18bd e3a0 aa3a e24b 64bd
00000230: bc49 0d3e 5d70 493e 10c5 1b3e 5eea 2bbe
00000240: 1f26 2dbd e1fd 023e 76d0 133e 2c25 8ebc
00000250: 3deb 053e d623 07bc 16df f63c b881 223e
00000260: 59f5 2e3e d74e f6bd 87b8 bebd 77dc 823d
00000270: f5c3 193e 9093 9dbc 3296 4e3e f817 4fbb
00000280: 4787 9cbd 70fe 743b 4de8 31be 28b3 ac3d
00000290: 9eca 2fbe 6daf 573e 905c 0fbe 1845 1a3e
000002a0: f7a7 0abe 5698 45bc 0eee edbd 4286 ec3d
000002b0: 3d47 0e3e a60d 44be 63d5 37be 0b82 383d
000002c0: 45d1 ab3c f7fc d13c c4cc 9f3d dfd6 19bc
000002d0: 6442 4c3e 3109 a23b 3339 90bd 2e57 bd3d
000002e0: bb44 0abe e992 acbd 0bac 843d 255e bebd
000002f0: e78b 34be 763f 053e 6caf a03d 05dd 553d
00000300: 45f2 c23d b716 3abe 20e4 bebd f51f a2bd
00000310: 4620 583e 7daf b8bd a051 09be fcbc 71bd
00000320: 5763 373d 2a25 c63d 781e 2b3e e96b 283e
00000330: 86b7 223d 8ae0 4d3e 98e8 0d3e bd73 0b3e
00000340: 2c68 38be d567 433d f2e7 13bd 110c 2bbe
00000350: 73c5 eabd 8a7b 143e 6e72 a43d b817 4a3e
00000360: 92dd 1a3e eeb1 a73c 9536 573e 1410 393d
00000370: 70d0 adbc 47c4 b2bd af72 143e 4182 c23d
00000380: b671 243e 33b5 17bd 204d 42be a2a1 8a3d
00000390: a15c 8d3c 43d7 f6bd 5218 9c3d 41eb d5bc
000003a0: 80e3 4a3e 6180 d93c ecf5 c2bd 7493 453e
000003b0: a0ec fb3c 2d1b 15bd cc5f c63d 780f 5d3e
000003c0: 3400 fe3d 0860 173b 2634 3d3e 9016 84bd
000003d0: 243e 363e ad9f b2bd c34c ef3c 84b9 423e
000003e0: d057 9d3d 6238 2fbd af00 f43d f667 f03d
000003f0: 7e4b 34be 5804 8739 c1ae 22be fec7 20bd

l2.weight f4 [300, 400]
0.021236314 -0.04718354 -0.03589436 -0.03511618 0.020565022 -0.0075040613 -0.05171662 0.04318719
0.013031924 0.04598725 0.00039621454 0.0014391493 0.030202491 -0.034017146 0.041370448 -0.03791867
0.00453192 -0.038347147 -0.033128746 0.032670375 -0.018963652 -0.015229995 0.033430304 0.043169726
-0.050917827 -0.006699105 0.014277733 0.042361617 -0.025760002 -0.022120668 -0.035135012 0.01277557
0.0064909593 -0.006625252 -0.010905532 -0.04062373 -0.026342291 -0.019016046 0.013133663 0.017530143
0.017563257 -0.038166072 -0.0096617425 -0.015359963 0.05783376 0.030339556 -0.043108176 -0.027473396
-0.043573596 -0.018353026 -0.049539577 0.01768186 -0.027890652 -0.030904997 -0.0034808808 -0.017623456
0.037772328 0.03948011 -0.05049216 0.016610362 -0.0048045437 0.02051755 -0.024568224 0.0027826102
-0.0009352982 0.011362004 0.019080695 0.013724996 0.0061363936 -0.043197926 -0.03456011 -0.028484607
-0.055629276 0.0421163 -0.02848113 -0.03906472 -0.028488278 0.021341894 -0.031343836 -0.047620688
-0.043095015 0.0051405267 -0.0020456256 -0.04511258 -0.040049423 -0.043331172 0.011383086 0.016778294
0.0028810394 -0.021789422 -0.032627508 0.013917575 -0.017328251 -0.013859212 -0.02222525 0.008689838
0.005882166 0.041080445 0.038585857 -0.012886221 0.007431084 -0.039184567 -0.043378342 0.035621725
4.111045e-05 -0.030685503 0.019317351 0.014404622 0.012237902 0.015319747 0.0026703656 -0.03637248
-0.0444493 0.042971216 0.02909869 -0.044856645 0.033341482 -0.052595917 0.027438154 0.029105803
0.025587592 0.015364931 -0.03611269 -0.021442665 0.004910376 0.01387252 0.038014323 -0.0035185758
0.014757856 -0.043586187 -0.010148686 0.029734397 -0.0017578637 0.033851996 -0.04589636 -0.039199334
0.009875327 -0.007926758 -0.048262753 0.015498717 -0.0037620899 0.006337326 0.0051463973 -0.04031725
-0.039344527 -0.0457961 0.030470531 -0.033284165 0.039387397 -0.015967442 0.0052411933 0.041932326
-0.032656364 -0.053260952 0.0014883309 -0.041912135 0.02179893 0.014028439 0.030380713 -0.010984417
-0.03842387 -0.05192533 -0.032294895 0.038705043 -0.013492042 -0.006717218 -0.01645421 -0.031350076
0.049015332 -0.018779354 -0.029956833 0.04045115 0.024079511 0.026647432 0.02999512 -0.037600778
0.024335856 -0.01970576 -0.0039606793 0.017736737 -0.02242728 0.04321155 -0.0056026108 0.022980524
-0.0012479897 -0.04819132 -0.035735052 -0.041663945 2.5831625e-05 -0.039389696 -0.04558683 0.004871301
-0.049590267 -0.03305503 -0.03818001 0.018810244 0.040027976 0.01164519 -0.027983278 0.037845343
0.04074092 -0.019321699 0.03115062 0.006793422 -0.040628023 -0.018878128 -0.045640014 0.009241657
0.021809384 -0.055018418 -0.013992985 0.0010835469 0.034198146 -0.03309359 -0.008717185 -0.0072264234
-0.030394388 -0.02766289 -0.019194992 -0.020786451 -0.016093869 0.004780346 -0.009965995 -0.030167066
0.024528902 0.035769727 -0.007838207 -0.015276629 -0.05457851 -0.04237275 -0.008094527 -0.015376709
0.008800766 -0.030665144 -0.002255405 0.015426821 0.04331544 0.03349087 -0.038585007 -0.009984327
-0.0140351 -0.007437369 0.015063775 -0.025959043 -0.016454475 -0.054799344 -0.023574011 -0.049038596
0.01188402 -0.03848811 -0.024707008 -0.042059965 0.032263946 -0.020521153 0.03765612 -0.024845397
00000000: c7f7 ad3c 8743 41bd f705 13bd fcd5 0fbd
00000010: fa77 a83c a1e4 f5bb ced4 53bd 0de5 303d
00000020: da83 553c 205d 3c3d 04bb cf39 d6a1 bc3a
00000030: 376b f73c 9055 0bbd 0f74 293d 9b50 1bbd
00000040: 8080 943b e611 1dbd 02b2 07bd 5fd1 053d
00000050: a959 9bbc 3b87 79bc 37ee 083d bdd2 303d
00000060: 368f 50bd 2a84 dbbb 27ed 693c 6083 2d3d
00000070: a406 d3bc 6736 b5bc bbe9 0fbd a050 513c
00000080: 1db2 d43b a418 d9bb 1ead 32bc 1165 26bd
00000090: cacb d7bc 8ac7 9bbc 932e 573c 609b 8f3c
000000a0: d2e0 8f3c 0754 1cbd 494c 1ebc 5ba8 7bbc
000000b0: 18e3 6c3d a98a f83c 3392 30bd e30f e1bc
000000c0: 3a7a 32bd 1659 96bc 03ea 4abd 8cd9 903c
000000d0: f07a e4bc 7a2c fdbc 7d1f 64bb 115f 90bc
000000e0: 28b7 1a3d e5b5 213d ded0 4ebd 7412 883c
000000f0: 6f6f 9dbb 6c14 a83c 4d43 c9bc 745c 363b
00000100: cd2e 75ba b327 3a3c 1e4f 9c3c cede 603c
00000110: cd13 c93b 4ff0 30bd e78e 0dbd 8d58 e9bc
00000120: 86db 63bd 2482 2c3d 4251 e9bc 5402 20bd
00000130: 4060 e9bc 32d5 ae3c 6562 00bd e90d 43bd
00000140: 6684 30bd dd71 a83b e70f 06bb f8c7 38bd
00000150: dd0a 24bd 077c 31bd 2080 3a3c a272 893c
00000160: d2cf 3c3b bb7f b2bc 6ca4 05bd 8a06 643c
00000170: faf3 8dbc c011 63bc ba11 b6bc d35f 0e3c
00000180: 2fbf c03b f843 283d 340c 1e3d ba20 53bc
00000190: 7380 f33b ff7f 20bd 7dad 31bd 16e8 113d
000001a0: 026e 2c38 2a60 fbbc 6c3f 9e3c 5d01 6c3c
000001b0: 7b81 483c adff 7a3c 4d01 2f3b 4ffb 14bd
000001c0: 7810 36bd 9602 303d 6060 ee3c 9abb 37bd
000001d0: 1491 083d d16e 57bd fbc5 e03c 4b6f ee3c
000001e0: 129d d13c 31bd 7b3c e6ea 13bd 87a8 afbc
000001f0: 38e7 a03b 9149 633c e8b4 1b3d e897 66bb
00000200: efca 713c 6e87 32bd ad46 26bc 8d95 f33c
00000210: 1e68 e6ba 64a8 0a3d d2fd 3bbd 7b8f 20bd
00000220: 20cc 213c 3cdf 01bc 2aaf 45bd 55ee 7d3c
00000230: 658d 76bb 58a9 cf3b 1ca3 a83b b323 25bd
00000240: ba27 21bd b194 3bbd 569d f93c fa54 08bd
00000250: ae54 213d 27ce 82bc 51be ab3b 3bc1 2b3d
00000260: aec2 05bd 2828 5abd 1914 c33a 0fac 2bbd
00000270: ab93 b23c 8ad7 653c f9e0 f83c fcf7 33bc
00000280: 5962 1dbd a8af 54bd a747 04bd 2e89 1e3d
00000290: ba0d 5dbc 1c1c dcbb fbca 86bc f068 00bd
000002a0: 4dc4 483d 29d7 99bc 0868 f5bc 1bb0 253d
000002b0: 6542 c53c b74b da3c 53b8 f53c 4603 1abd
000002c0: fd5b c73c f96d a1bc 96c8 81bb a24c 913c
000002d0: 6ab9 b7bc 98fe 303d 1b96 b7bb a741 bc3c
000002e0: 9693 a3ba 4364 45bd eb5e 12bd d0a7 2abd
000002f0: feb0 d837 1757 21bd 41b9 3abd 6f9f 9f3b
00000300: 2a1f 4bbd b664 07bd a462 1cbd f117 9a3c
00000310: 60f4 233d 78cb 3e3c 303d e5bc b803 1b3d
00000320: f3df 263d 8a48 9ebc 962f ff3c 5b9b de3b
00000330: 9269 26bd 4ea6 9abc 06f1 3abd 526a 173c
00000340: 98a9 b23c fe5a 61bd d542 65bc cd05 8e3a
00000350: 5b13 0c3d 258d 07bd 86d2 0ebc a2cb ecbb
00000360: a7fd f8bc 499d e2bc d13e 9dbc 5948 aabc
00000370: 4ad7 83bc 73a4 9c3b 6a48 23bc ec20 f7bc
00000380: d6f0 c83c 4783 123d d36b 00bc d34a 7abc
00000390: b78d 5fbd 0c8f 2dbd e89e 04bc 98ee 7bbc
000003a0: 1731 103c 7835 fbbc 6bcf 13bb c7c0 7c3c
000003b0: 886b 313d b92d 093d 500b 1ebd 4d95 23bc
000003c0: 7af3 65bc 2cb5 f3bb 0dce 763c 0fa8 d4bc
000003d0: 89cb 86bc 4775 60bd 491e c1bc b2dc 48bd
000003e0: 31b5 423c b5a5 1dbd 5a66 cabc 1247 2cbd
000003f0: 3327 043d fa1b a8bc 4e3d 1a3d 9388 cbbc

l2.bias f4 [300]
0.0014394019 -0.036673307 -0.044497475 0.035578016 0.050226465 0.016933905 0.008043723 -0.0032268325
-0.04357099 -0.010782281 -0.0052961046 -0.025293976 -0.023410063 -0.043613583 -0.01602029 0.05313279
0.00808008 -0.027320268 0.04353283 -0.032005806 -0.029769814 -0.023139112 -0.032323528 0.022824531
0.03407474 -0.004433593 0.014723144 -0.0074226507 0.02583764 -0.0078024883 -0.0313925 0.021312185
0.06747043 -0.026363695 0.0028717355 0.03796512 0.050212875 -0.028265916 0.02963551 -0.024851074
-0.049593687 -0.01833019 -0.027129315 -0.0047415514 0.012551318 -0.00089478394 -0.05329799 -0.03967675
-0.04163549 0.030337425 0.004868566 -0.036699817 -0.002047306 -0.03224285 -0.0014272882 0.03936999
-0.026533196 0.04222603 -0.05722446 -0.023504952 0.041197453 0.029644076 -0.027009213 -0.02830222
0.024698172 0.073182546 -0.006214284 -0.022714576 0.01713374 -0.0106791025 -0.05074748 -0.004598657
-0.054692406 -0.005688355 -0.02809375 0.02072677 -0.046796963 -0.0419831 0.048335295 -0.021360023
-0.04392797 -0.053866208 -0.048098218 0.0019193427 0.01039709 0.017822817 -0.047165103 0.00356316
0.0066446704 0.033542622 0.020904237 -0.054846253 -0.029846651 -0.021452827 0.066738576 0.03357484
0.0015386969 0.009016679 0.030686978 -0.024569456 0.004656767 0.03897813 -0.041002057 -0.054609787
0.031119376 0.0005524274 -0.047126886 -0.049746107 0.028242525 -0.036343534 -0.003802722 -0.014024946
0.05283671 -0.04577652 -0.016266486 -0.011248387 -9.6285345e-05 0.02075524 0.0023486307 -0.012426338
-0.044950698 -0.0021154413 -0.0011363808 0.03922229 0.0117208 0.063230634 0.044039268 -0.040053695
0.0035506927 -0.051633142 0.07416346 -0.016634664 0.028900815 0.037351187 -0.004386629 -0.045321673
-0.051560707 -0.022440964 -0.023326237 -0.033121355 0.022441586 0.04102115 0.02715336 -0.050564833
0.033359416 -0.051025763 0.028500816 0.0068050595 0.0520269 0.0011484507 0.02405324 -0.038263522
-0.0044770543 -0.0078074373 0.018497301 -0.010851663 0.007084489 -0.0073911063 0.026519729 0.023652706
-0.008470341 -0.042119455 -0.05679118 -0.020144336 -0.012618313 0.028286796 0.029129049 0.023680734
0.03985689 -0.013660057 -0.018589897 0.0010292556 -0.0021935673 -0.021225905 0.029754309 -0.0085376715
-0.028830959 -0.020918204 -0.017725075 0.027189681 0.052758764 0.0019233057 0.0093754465 -0.0016759392
-0.023879685 0.035345927 0.03205386 -0.030377414 0.035683546 0.014183651 0.003484489 -0.03814685
0.036322773 -0.047062755 -0.048281875 0.00637203 0.025674278 -0.014886852 0.0411027 0.045997445
-3.607869e-05 0.021760939 0.04128759 0.026385436 -0.009969218 -0.03341354 0.03868073 -0.04188347
-0.033141732 0.029216591 -0.024085578 0.0487371 0.007943319 0.05077947 0.011786922 -0.030653723
-0.013370066 -0.015829021 -0.019348657 -0.03747044 -0.038476806 -0.002316642 0.04852708 0.03293337
0.015274318 0.011925134 0.018161688 0.026686812 -0.037824288 0.038548846 0.051444177 -0.037126683
0.030958572 -0.029324418 -0.027673865 0.023830008 0.031735852 -0.002003883 -0.03775747 -0.0050993296
-0.049302414 -0.045620408 -0.03752154 -0.045751967 -0.04184587 -0.022125088 -0.013036092 0.050461967
0.014236668 -0.01767931 0.027334442 0.05705188 0.06262357 -0.016218003 0.011524845 0.034777205
00000000: 50aa bc3a c036 16bd fc42 36bd 41ba 113d
00000010: 44ba 4d3d f9b8 8a3c d2c9 033c 4479 53bb
00000020: 7f77 32bd 2aa8 30bc f28a adbb 5035 cfbc
00000030: 76c6 bfbc 28a4 32bd fc3c 83bc c5a1 593d
00000040: 5062 043c c1ce dfbc 7b4f 323d 8518 03bd
00000050: d3df f3bc 3c8e bdbc ad65 04bd 83fa ba3c
00000060: f491 0b3d ac47 91bb 5739 713c b539 f3bb
00000070: 75a9 d33c 04ac ffbb 6c95 00bd e496 ae3c
00000080: f02d 8a3d adf8 d7bc ba33 3c3b 5081 1b3d
00000090: 04ac 4d3d ec8d e7bc 2bc6 f23c 7b94 cbbc
000000a0: c022 4bbd 3229 96bc 4c3e debc 045f 9bbb
000000b0: 0ba4 4d3c ef8f 6aba fe4e 5abd 1684 22bd
000000c0: fa89 2abd 3186 f83c 7e88 9f3b 8c52 16bd
000000d0: 182c 06bb 1411 04bd d813 bbba 6d42 213d
000000e0: 255c d9bc 34f5 2c3d 3264 6abd 758d c0bc
000000f0: a9be 283d 22d8 f23c 6d42 ddbc 0fda e7bc
00000100: d253 ca3c bbe0 953d 31a1 cbbb eb13 babc
00000110: 0f5c 8c3c 67f7 2ebc 97dc 4fbd 55b0 96bb
00000120: 2505 60bd 6165 babb dd24 e6bc 30cb a93c
00000130: 2cae 3fbd 79f6 2bbd 3bfb 453d 37fb aebc
00000140: d1ed 33bd d0a2 5cbd a302 45bd 7492 fb3a
00000150: 8e58 2a3c 2801 923c 3230 41bd e883 693b
00000160: 89bb d93b fd63 093d 5d3f ab3c 77a6 60bd
00000170: f780 f4bc d7bd afbc 3cae 883d c585 093d
00000180: 1aae c93a b1ba 133c 4263 fb3c e245 c9bc
00000190: cb97 983b 88a7 1f3d c6f1 27bd 83ae 5fbd
000001a0: 10ee fe3c c6d0 103a 1f08 41bd 93c2 4bbd
000001b0: de5c e73c f5dc 14bd 1737 79bb e3c8 65bc
000001c0: 4e6b 583d 2980 3bbd 4b41 85bc 284b 38bc
000001d0: cdec c9b8 e506 aa3c 7ceb 193b d797 4bbc
000001e0: 391e 38bd 37a3 0abb 9df2 94ba 8da7 203d
000001f0: 9908 403c 107f 813d 8562 343d 580f 24bd
00000200: bdb2 683b 467d 53bd 03e3 973d 6b45 88bc
00000210: 67c1 ec3c 8ffd 183d b6bd 8fbb 38a3 39bd
00000220: 5231 53bd 1dd6 b7bc aa16 bfbc 42aa 07bd
00000230: 6bd7 b73c cb05 283d b970 de3c 121d 4fbd
00000240: e2a3 083d 6400 51bd 8b7a e93c fafc de3b
00000250: 291a 553d 9c87 963a 4d0b c53c 36ba 1cbd
00000260: 41b4 92bb 88d5 ffbb a787 973c 2ccb 31bc
00000270: 0025 e83b 1831 f2bb e73f d93c 52c3 c13c
00000280: 2fc7 0abc 7385 2cbd de9d 68bd bc05 a5bc
00000290: 0abd 4ebc b6b9 e73c 0ba0 ee3c 19fe c13c
000002a0: fa40 233d 6fce 5fbc d749 98bc 16e8 863a
000002b0: f4c1 0fbb f3e1 adbc 4fbf f33c 97e1 0bbc
000002c0: e72e ecbc a75c abbc 2d34 91bc e5bc de3c
000002d0: 9319 583d 6e17 fc3a 799b 193c 30ab dbba
000002e0: 549f c3bc e4c6 103d e94a 033d 0eda f8bc
000002f0: e928 123d 8b62 683c 065c 643b df3f 1cbd
00000300: 30c7 143d e0c4 40bd 37c3 45bd 76cc d03b
00000310: dd52 d23c fce7 73bc 4e5b 283d d167 3c3d
00000320: 3353 17b8 ff43 b23c 2d1d 293d 4526 d83c
00000330: ee55 23bc a3dc 08bd af6f 1e3d 008e 2bbd
00000340: a0bf 07bd a257 ef3c 1e4f c5bc 8ea0 473d
00000350: b224 023c 22fe 4f3d ef1d 413c 841d fbbc
00000360: 1f0e 5bbc ddab 81bc 1381 9ebc 9b7a 19bd
00000370: db99 1dbd ced2 17bb 55c4 463d 24e5 063d
00000380: 2241 7a3c a361 433c d2c7 943c 4d9e da3c
00000390: a4ed 1abd 65e5 1d3d 21b7 523d 2612 18bd
000003a0: d59c fd3c c339 f0bc 4db4 e2bc 2637 c33c
000003b0: 74fd 013d 9453 03bb 94a7 1abd 4718 a7bb
000003c0: 54f1 49bd 77dc 3abd 30b0 19bd 6a66 3bbd
000003d0: 9366 2bbd ac3f b5bc 5595 55bc 35b1 4e3d
000003e0: ea40 693c 33d4 90bc 7bec df3c 3baf 693d
000003f0: c940 803d 9edb 84bc b4d2 3c3c 8b72 0e3d

l3.weight f4 [4, 300]
0.039883677 0.023079913 0.02156164 0.045619212 0.025208341 0.005954237 -0.054628305 -0.049359865
-0.024336847 -0.020220991 -0.005316044 -0.036583338 0.0054387585 0.041147247 0.0179668 -0.07227621
0.02548302 -0.0008891938 0.032978423 0.03379895 -0.022146674 -0.03221707 0.016635222 0.011299855
-0.0035382153 0.036946584 -0.040230755 -0.018993707 0.004433902 0.023688365 0.013272279 0.0009102854
-0.03740509 -0.014943451 -0.023419227 -0.0065628435 -0.023188312 -0.0063680275 -0.03241433 -0.01426595
0.04051562 0.002026532 0.026077073 -0.045525186 0.00067854614 0.020262439 0.035216488 -0.009311694
0.048337996 0.008806098 0.0071023437 -0.013538073 0.011316228 -0.0055270568 -0.031055242 0.030270938
0.03965896 0.031756002 -0.026529675 0.020895157 0.018868838 0.008781661 0.04286278 -0.0062103546
-0.025728028 -0.045440704 0.019240513 -0.0007997595 -0.028469153 0.00043919505 -0.0049242172 -0.011858672
0.04807812 -0.011930401 -0.076017946 -0.046996884 0.047695618 -0.033585202 -0.053923283 0.012216515
-0.019647086 0.011483094 -0.030144498 0.030276097 -0.04981059 -0.0041412534 -0.039932318 -0.02901909
-0.03969292 0.023384841 -0.031269375 0.032407444 -0.02223413 -0.056232896 -0.031231206 -0.02307361
0.022573037 0.00013254034 -0.039471064 0.032729693 -0.046119247 0.03633351 -0.030935334 -0.03998159
0.04310899 -0.06898939 -0.04365363 0.04020713 -0.024955794 -0.0280865 -0.016180038 0.005911428
0.03390654 -0.0075174016 0.024128558 -0.02308458 0.052563608 0.026266638 0.009825264 -0.05804123
0.03868776 -0.06850388 -0.023863463 -0.002612212 0.029670518 -0.06556977 0.037183184 0.06181188
0.036617402 0.023257067 -0.03092822 -0.0006433608 -0.039742693 0.03261907 0.010118618 0.017878905
0.0155834565 -0.032278195 0.0002228827 -0.009816287 -0.060995925 -0.037236266 -0.06898549 0.017112546
-0.025657626 0.013624284 -0.05451177 0.026533272 -0.038397506 0.02181886 0.024256472 0.004897713
0.04360555 -0.001958593 0.023777721 -0.035749353 -0.05739083 -0.0055973832 -0.06401284 -0.04492456
-0.049696308 -0.021042751 -0.057947338 -0.040704824 0.007296325 0.050038557 -0.046197064 -0.044009108
-0.06305559 -0.041867387 -0.038801573 -0.030506967 0.008974728 0.04137537 0.03299203 0.051391333
-0.054227784 0.03985666 -0.027988127 -0.0519861 -0.07515129 0.032285545 0.04723308 0.025334602
0.016101237 0.034128644 0.030388316 0.046751324 0.045104336 0.019313738 -0.016303658 0.015054707
0.008737111 0.036083102 -0.04605532 -0.052605223 0.027896805 -0.019961765 -0.04700884 -0.0049403105
-0.02862879 -0.015267827 -0.030266812 0.0010823051 -0.01677144 -0.02312369 0.0042085173 0.002168787
0.01256844 0.050051384 -0.0005959539 -0.038521376 0.031110773 -0.019266207 0.017137416 0.0348778
-0.052631173 -0.025436344 0.009443176 0.027596092 -0.03368652 -0.017707223 -0.046565965 -0.05056215
-0.025642747 -0.04238848 0.0021769283 -0.024072127 -0.0728962 -0.011787658 0.018050013 0.03844647
-0.048526067 -0.07036064 -0.03661991 -0.0067681987 -0.012412503 -0.06591095 -0.013660846 -0.0062678866
-0.045456894 0.047222894 -0.027752753 -0.04768505 0.028966593 -0.053956207 0.032194536 -0.045425043
-0.06751328 0.044037715 -0.01775609 0.0087290155 -0.057679307 -0.0012183298 -0.034016773 -0.025715437
00000000: 115d 233d 1612 bd3c 09a2 b03c 36db 3a3d
00000010: b981 ce3c c31b c33b eec1 5fbd 922d 4abd
00000020: 115e c7bc 7ea6 a5bc 3632 aebb 69d8 15bd
00000030: 9d37 b23b 048a 283d 1c2f 933c 8d05 94bd
00000040: c4c1 d03c c918 69ba 6214 073d c570 0a3d
00000050: f16c b5bc 0cf6 03bd 9746 883c 0723 393c
00000060: 67e1 67bb 4d55 173d 01c9 24bd b198 9bbc
00000070: 444a 913b 1a0e c23c f973 593c 38a0 6e3a
00000080: 1436 19bd 60d5 74bc aed9 bfbc 1f0d d7bb
00000090: 6af5 bdbc e3aa d0bb e3c4 04bd bbbb 69bc
000000a0: b5f3 253d 91cf 043b 969f d53c 9e78 3abd
000000b0: 76e0 313a 6afd a53c 2a3f 103d 1390 18bc
000000c0: 10fe 453d 7447 103c c7ba e83b cbce 5dbc
000000d0: b367 393c 501c b5bb 9067 febc c2fa f73c
000000e0: 6f71 223d 9512 023d c354 d9bc 522c ab3c
000000f0: d292 9a3c f5e0 0f3c e290 2f3d 3b80 cbbb
00000100: 96c3 d2bc 0820 3abd 489e 9d3c f4a6 51ba
00000110: 2438 e9bc c343 e639 545b a1bb e04a 42bc
00000120: 90ed 443d bb77 43bc 4caf 9bbd ce7f 40bd
00000130: 7b5c 433d a390 09bd a9de 5cbd c727 483c
00000140: edf2 a0bc 9623 3c3c 98f1 f6bc 9405 f83c
00000150: 3006 4cbd 5ab3 87bb 1290 23bd 71b9 edbc
00000160: 0b95 22bd 9191 bf3c 5114 00bd abbd 043d
00000170: 5a24 b6bc 7754 66bd 96d8 ffbc de04 bdbc
00000180: 17eb b83c 87fa 0a39 69ac 21bd 920f 063d
00000190: 89e7 3cbd 72d2 143d 196c fdbc bcc3 23bd
000001a0: 0d93 303d 4f4a 8dbd 26ce 32bd 3bb0 243d
000001b0: 1870 ccbc a915 e6bc 008c 84bc a7b4 c13b
000001c0: 96e1 0a3d 8954 f6bb 41a9 c53c e01b bdbc
000001d0: f04c 573d 222d d73c 25fa 203c a4bc 6dbd
000001e0: 0e77 1e3d c34b 8cbd 4f7d c3bc a531 2bbb
000001f0: 960f f33c 7249 86bd 654d 183d 742e 7d3d
00000200: 21fc 153d 9b85 be3c 2e5d fdbc 36a7 28ba
00000210: 3cc9 22bd 939b 053d 8fc8 253c c876 923c
00000220: c151 7f3c 2436 04bd 9fb5 6939 7ed4 20bc
00000230: ddd6 79bd 0e85 18bd 4448 8dbd 9c2f 8c3c
00000240: f12f d2bc 6438 5f3c bc47 5fbd 4e5c d93c
00000250: b446 1dbd 77bd b23c 82b5 c63c ff7c a03b
00000260: bc9b 323d bd5b 00bb 7fc9 c23c ea6d 12bd
00000270: a612 6bbd 416a b7bb 2a19 83bd d102 38bd
00000280: 5b8e 4bbd d961 acbc 305a 6dbd 1aba 26bd
00000290: 0316 ef3b 3bf5 4c3d 2239 3dbd e542 34bd
000002a0: 4a23 81bd 237d 2bbd 66ee 1ebd bfe9 f9bc
000002b0: bd0a 133c 3879 293d a722 073d b87f 523d
000002c0: f41d 5ebd bd40 233d 5b47 e5bc 60ef 54bd
000002d0: ebe8 99bd d93d 043d 7977 413d 838a cf3c
000002e0: bee6 833c 7aca 0b3d ebf0 f83c 517e 3f3d
000002f0: 53bf 383d d837 9e3c 408f 85bc 05a8 763c
00000300: 1a26 0f3c e0cb 133d 81a4 3cbd 9378 57bd
00000310: d787 e43c db86 a3bc 578c 40bd 54e2 a1bb
00000320: ed86 eabc e825 7abc 1bf2 f7bc 22dc 8d3a
00000330: 4264 89bc e56d bdbc 9ae7 893b 3522 0e3b
00000340: dceb 4d3c ae02 4d3d ca39 1cba 97c8 1dbd
00000350: 05dc fe3c 2ad4 9dbc c463 8c3c 06dc 0e3d
00000360: c993 57bd e15f d0bc 8db7 1a3c 3311 e23c
00000370: e0fa 09bd bd0e 91bc f4bb 3ebd 421a 4fbd
00000380: bd10 d2bc 8b9f 2dbd ccaa 0e3b e932 c5bc
00000390: 9a4a 95bd 0521 41bc 9fdd 933c 0c7a 1d3d
000003a0: 45c3 46bd 3d19 90bd c2fe 15bd c4c7 ddbb
000003b0: d05d 4bbc 52fc 86bd bed1 5fbc d862 cdbb
000003c0: 0231 3abd cb6c 413d be59 e3bc 6651 43bd
000003d0: 594b ed3c 2f01 5dbd 6bde 033d 9c0f 3abd
000003e0: 6744 8abd e460 343d 3875 91bc 2504 0f3c
000003f0: 2341 6cbd 5db0 9fba 2c55 0bbd 2ea9 d2bc

l3.bias f4 [4]
0.029179363 0.011014468 -0.009290508 0.06975618
00000000: 8f09 ef3c 0776 343c 3737 18bc 54dc 8e3d
