Hardcore/td3_actor_hardcore.pth (torch, 528175 bytes, 6 tensors)

l1.weight f4 [400, 24]
000000 7f 5b 33 3e 0c 23 3c 3e 93 05 f7 bc d0 5c 33 3e
       0.17515372 0.18372744 -0.030154025 0.17515874
000010 2e 99 f2 bc 8f a3 c5 3c df bc ef bd 06 b6 dd 3d
       -0.029614057 0.024125842 -0.11705946 0.10825734
000020 f9 01 4b 3e 59 24 2d be ab 04 27 3e d8 37 aa 3c
       0.19824971 -0.16908397 0.16310374 0.020778582
000030 dc 77 11 3e 96 2a 3b 3d e2 a5 f0 3d 49 a0 1f bc
       0.14205879 0.04569491 0.1175039 -0.009742805
000040 2a ab 34 3e 77 b9 49 3d d7 16 9c bd 84 a1 91 3d
       0.17643419 0.04924914 -0.07621544 0.07110885
000050 92 89 99 bd dc 57 9f bb 8b 2d 83 bd 0c 00 1e 3e
       -0.074969426 -0.0048627686 -0.06405171 0.15429705
000060 88 3b 14 be f4 34 8e bd b3 4b 12 bd be 8f 19 be
       -0.14475834 -0.06943694 -0.035716724 -0.1499624
000070 0e 0f dd 3c e4 8d 64 be da be 27 3e ff 12 3a be
       0.026984718 -0.22319752 0.16381398 -0.18171309
000080 b2 66 34 3e 59 b1 ae 3c 90 2a bc bd 69 2b d7 3d
       0.176173 0.0213248 -0.09187806 0.10506327
000090 96 9d 67 3b a6 85 3c 3e f5 25 21 3d 23 ef 41 bd
       0.0035341731 0.18410358 0.03934284 -0.0473472
0000a0 24 32 93 3d b3 fb 1c bd f0 cf d2 3d d2 0e 4c 3e
       0.07187298 -0.038325977 0.10293567 0.19927529
0000b0 f9 43 0a 3e 3f e1 93 bd 68 d2 0a 3e 3f 4e 5e 3d
       0.13502492 -0.07220697 0.13556826 0.05427384
0000c0 bb 5b f4 3d 2a 2e df bd 66 c6 3c be 83 da b6 bd
       0.11931559 -0.10897477 -0.18435058 -0.089283966
0000d0 4a 6e 31 be ab 5f 17 3e 58 c5 31 3d f5 aa b0 3d
       -0.17327228 0.14782588 0.043401092 0.086263575
0000e0 94 7a a0 3d 87 61 a4 bc 94 6e 2c 3e de 35 24 be
       0.0783588 -0.020066036 0.16839057 -0.16036174
0000f0 ca b7 46 3b b0 ae 00 be 9b d7 9d 3d c0 0f 66 bd
       0.003032195 -0.12566638 0.07707139 -0.056167364
000100 9a 08 9d 3d 16 a2 e8 bc e3 d4 3b 3e 2b d6 da bd
       0.07667656 -0.028397601 0.18342929 -0.106853805
000110 5d 61 dc bd d3 64 dc bd 83 af 4a 3e 81 0b a9 3d
       -0.10760758 -0.10761418 0.19793515 0.08254147
000120 9c 0b 53 3e 89 9a 2e be 32 22 44 be d6 3f 1f be
       0.20609897 -0.17051138 -0.1915367 -0.15551695
000130 db c1 16 be a4 73 91 3d 13 7d 83 3d b0 d5 32 3e
       -0.14722387 0.07102135 0.064203404 0.17464328
000140 79 ef c4 bd f9 64 18 be 09 f2 eb 3d 1a 18 bb bd
       -0.09615988 -0.14882268 0.11520774 -0.091354564
000150 93 61 06 3e 3d fb 1e bd 97 d0 01 3e 04 29 18 be
       0.13123159 -0.03881382 0.12677227 -0.14859396
000160 7b 7a be bd 11 f1 93 3d 98 bc 59 3d ab 2f 2c bd
       -0.09300705 0.07223714 0.053158373 -0.042037647
000170 b7 d6 06 3e d7 57 18 3e 67 89 0d be 99 f6 ca bd
       0.13167845 0.14877258 -0.13821946 -0.09910316
000180 11 f5 42 3e 93 67 87 bd 29 42 8e bd bc 09 4e be
       0.19038798 -0.06611552 -0.06946213 -0.20120901
000190 84 a6 f7 bd 7a 56 45 3d 4b 49 f7 bc 80 1c 11 be
       -0.12092307 0.048178174 -0.030186316 -0.14171028
0001a0 28 ca da 3b 61 39 12 be 7e de 2e be b4 24 ed bd
       0.006676931 -0.14279701 -0.17077062 -0.11579266
0001b0 61 80 36 be fb 3f 01 be 93 3c 54 3e 0b 19 2b 3d
       -0.1782241 -0.12622063 0.20726232 0.04177193
0001c0 65 6a 87 3d 3a a8 3f be 40 fc 05 be bc 8e 84 bd
       0.0661209 -0.18716517 -0.13084507 -0.06472537
0001d0 c3 ec 0f 3d ae a0 34 be 1b 88 ad bd c9 97 f3 bd
       0.035137903 -0.1763942 -0.08473226 -0.11894185
0001e0 e0 99 0d 3c e9 1c 90 bd 7c e6 fc bb c4 8b 16 be
       0.008642644 -0.07036764 -0.0077179056 -0.14701754
0001f0 c9 43 16 be f9 2a f7 bd 2a 9d 9f bd 0e 5c 38 be
       -0.14674295 -0.12068743 -0.077936485 -0.18003866
000200 a5 32 35 3e a2 8a 44 bd 38 08 32 3e 9e a3 67 3d
       0.176951 -0.047983773 0.17385948 0.056552522
000210 ba 65 39 be e0 e7 19 3e 95 57 42 bd 51 65 8e bd
       -0.18105212 0.1502986 -0.047446806 -0.06952918
000220 e7 93 24 be 50 e0 46 be df 75 89 3d b5 ee 12 bd
       -0.16072045 -0.19421506 0.06711935 -0.03587218
000230 e6 9b b4 3d 46 9c 22 be 5f d5 23 3e af d6 10 be
       0.08818798 -0.15879926 0.15999363 -0.14144395
000240 9b a3 a9 bc 94 17 5b 3d ad 5f fc 3d 9a 77 21 3e
       -0.020707896 0.053489283 0.12322936 0.1576828
000250 90 83 4d 3e 07 b1 2d be 27 16 05 3d cd af c6 bd
       0.20069718 -0.16962062 0.03249183 -0.097015
000260 6f 70 09 bc d9 4e 22 be e2 b8 33 3e 19 f0 2b be
       -0.008388623 -0.1585039 0.17550996 -0.16790809
000270 7b c6 d8 3d 04 ef ba 3d 81 a1 b2 3d 14 3b b7 bd
       0.10584732 0.0912762 0.08722211 -0.08946815
000280 53 62 53 3e 83 a6 86 3d f0 1f 41 3d 5e cf 22 be
       0.20642976 0.06574728 0.0471496 -0.15899417
000290 d0 46 da 3d 10 48 1f bc 00 8c 95 bd 1e 79 48 3e
       0.10658038 -0.009721771 -0.073020935 0.19577453
0002a0 3c 79 80 3d d6 d6 cb bd 52 a1 b3 bd 32 d3 bc bc
       0.062731236 -0.09953086 -0.08771004 -0.023049925
0002b0 de a9 02 3e d0 f2 81 bd 7f 92 08 be 9d b6 b3 bd
       0.12760112 -0.06345141 -0.13337134 -0.08775065
0002c0 dc 96 0b be 8a e8 6e 3d 98 c5 15 3e e3 7a 55 be
       -0.13631767 0.058327235 0.14626157 -0.20847659
0002d0 57 04 05 3d 08 52 fa 3d 6b 64 5e 3d 0f f8 62 bd
       0.032474842 0.122226775 0.054294985 -0.05541235
0002e0 8b 96 fd 3d c3 14 ff 3d 17 b6 bf 3d af 44 98 bc
       0.123822294 0.12455132 0.09360903 -0.018587438
0002f0 d9 9c 16 bd d4 44 20 3d 7e 20 9b bc 0d f0 32 bd
       -0.036770675 0.03912814 -0.018936392 -0.04368596
000300 e9 9b 05 3e 67 a2 33 3e ba 8a a5 bc d0 32 3b bd
       0.13047756 0.1754242 -0.020207752 -0.045702755
000310 44 35 43 3b bb af 47 bc 8e 01 49 3d 1e 4d 6a 3d
       0.0029786387 -0.0121878935 0.04907375 0.05720245
000320 c0 d8 3d be 5d 46 9a bd 48 06 30 3e 1d da a2 3d
       -0.18539715 -0.07532952 0.17189896 0.07951758
000330 42 57 26 bc e1 0a fc bd 49 c3 ff bd 6a 3c 3b be
       -0.01015264 -0.123067625 -0.124884196 -0.18284765
000340 73 44 88 bd 0c 2d 8d 3d 16 47 05 3e c7 02 c1 3d
       -0.06653681 0.06893358 0.13015398 0.09424358
000350 c7 c3 38 be b8 65 fb bd 07 f3 03 bd cc 32 4a 3e
       -0.18043433 -0.12275261 -0.03221419 0.1974594
000360 e4 e4 f1 3c 04 86 58 bd be f3 ac 3d e2 39 9f bd
       0.029528089 -0.052862182 0.08444928 -0.07774712
000370 9a 4a 07 be 36 90 18 3e 1d 16 be bd d7 9b 27 bd
       -0.13212052 0.14898762 -0.092815615 -0.040920105
000380 e6 ef 4f be 9f e4 0b 3e f8 5c 1e 3e 30 5b 98 3d
       -0.20306358 0.13661431 0.15465152 0.07439268
000390 17 bf 11 be 14 4b 4e be a2 c3 29 be 5d de 1b 3e
       -0.14233051 -0.20145828 -0.16578534 0.15221544
0003a0 d8 b4 c8 3d d6 e4 2f 3e 79 00 db 3d c5 9b 53 3d
       0.09800118 0.17177138 0.106934495 0.051662225
0003b0 60 00 03 bb 9e f6 1e be d0 15 33 be 6f 82 43 be
       -0.0019989237 -0.15523764 -0.1748879 -0.19092725
0003c0 f4 f3 92 3d 2e b5 e7 bd a4 da 5c bd 87 9c d7 bd
       0.071754366 -0.11313854 -0.05391945 -0.10527902
0003d0 60 b2 4c bd f8 99 05 be 57 3e f8 bd 58 60 8b 3d
       -0.0499748 -0.13047016 -0.121212654 0.068054855
0003e0 9b 60 94 bd b8 da 0b 3e 1f 07 56 bd e5 e6 0c be
       -0.072449885 0.13657653 -0.052252885 -0.13759954
0003f0 6f 5a b6 bc d2 7d e3 bd f2 d4 98 bd c6 74 53 be
       -0.022259919 -0.11107983 -0.07462491 -0.20650014

l1.bias f4 [400]
000000 2f bb d1 3d 14 db ef 3c 08 47 2a be d1 3f 87 bd
       0.102407806 0.02927927 -0.16628659 -0.06603969
000010 dc 95 06 3e 37 7e 00 3e 71 7b ba 3d e2 0d 4a 3e
       0.13143104 0.12548147 0.09105576 0.19731858
000020 f6 59 d9 bd 92 26 79 bd e6 5e 2e bd b4 92 50 bd
       -0.10612862 -0.0608278 -0.04257097 -0.050921157
000030 55 7f 3f 3e 4b 52 51 be d2 67 68 3d ef dd 61 3e
       0.18700917 -0.20441549 0.056739636 0.22057317
000040 9a 2a d4 bd 16 c3 30 3e cb 97 28 be 41 de 28 3d
       -0.10359688 0.1726192 -0.16464154 0.041227583
000050 36 7a c5 bd 83 b8 ae 3d f3 50 84 3d 04 e8 14 3d
       -0.096424505 0.085312866 0.06460752 0.03635408
000060 fb 81 e4 bc cf dc a2 bd 45 6b 4a be 6f 9e 1a 3d
       -0.02789401 -0.07952272 -0.19767483 0.03774875
000070 af 0e 43 3e 70 47 08 be e7 b3 71 bd 7d d3 44 3d
       0.1904857 -0.13308501 -0.05900946 0.048053253
000080 e0 0c ff 3d 28 ce b9 3d 56 b5 19 3e 95 53 e1 3c
       0.124536276 0.09072524 0.1501058 0.027505675
000090 29 36 f1 bc be c0 3e be 56 ec 50 be 8b 32 0f be
       -0.02944477 -0.18628213 -0.20402655 -0.13984124
0000a0 98 e0 fa 3d f2 71 38 3e 1a 31 59 3e b0 1b 19 3e
       0.12249869 0.18012217 0.21210137 0.14951968
0000b0 d9 8b fa 3c 83 78 24 3e fb 75 c4 3d 57 d7 fc bd
       0.030584263 0.16061597 0.095928155 -0.1234576
0000c0 48 24 93 bc a2 99 30 be 7b 1e 45 3e ba 8b 73 3d
       -0.017961636 -0.17246106 0.19249909 0.059459426
0000d0 ad 74 4e 3e 16 d2 17 bd 43 ca 14 3e 5a 2a d5 3d
       0.20161696 -0.037065588 0.14530282 0.104084685
0000e0 ef 2a a8 bc 91 d2 6e 3c 50 64 24 3e 95 12 0c bd
       -0.020528285 0.01457657 0.16053891 -0.03419741
0000f0 7b 9e 32 3e ca a0 86 3d b9 63 7e bd b9 28 98 bd
       0.17443268 0.06573637 -0.06210682 -0.07429642
000100 28 fc cf bd ba 98 17 3e 4b 3c 32 3e d0 2c a6 bd
       -0.10155517 0.14804354 0.17405812 -0.08114016
000110 e9 bb 32 be ba 81 0a 3e 48 98 38 bd da 8b 2d be
       -0.17454495 0.1352605 -0.0450671 -0.1694788
000120 08 92 73 3d 0d 77 ab bc 36 96 2a 3e a2 5d 77 3d
       0.059465438 -0.020930791 0.16658863 0.06039203
000130 55 a3 e7 bd a3 08 bf bc fd 18 16 be f3 56 b5 3d
       -0.1131045 -0.023319548 -0.1465797 0.08854475
000140 a1 dd a4 3d 31 95 f5 3d f7 06 1b be 43 b3 e8 bd
       0.08050085 0.11991347 -0.15139376 -0.113623165
000150 2d 49 df bd 6d d0 38 be 87 30 2d be 7a ef 32 be
       -0.10902629 -0.18048258 -0.16913043 -0.17474166
000160 bf 8c 25 3e b9 5f 32 bd a5 ee 8f bc 19 19 a4 3d
       0.16166972 -0.04354832 -0.01756985 0.080125995
000170 a1 f6 34 3d a2 8a c4 3d a1 13 10 be 11 0b 3f 3e
       0.044180516 0.095967546 -0.14069988 0.18656565
000180 76 92 84 3b c4 8d b4 bd 96 fb 17 3e 5c 18 30 be
       0.00404578 -0.08816102 0.14842066 -0.17196792
000190 8a 16 00 be eb d4 0a 3e e0 5d bc 3d 1e ad 8e bd
       -0.12508598 0.13557784 0.09197593 -0.06966613
0001a0 4d 8e 90 b9 a8 49 b2 bc a5 44 b9 3d a1 61 7c 3d
       -0.00027571843 -0.021763638 0.09046296 0.061616544
0001b0 ee f0 9f 3d cc cf 41 3e 38 c2 0f be dd c9 20 be
       0.078096256 0.18926924 -0.14038932 -0.15702005
0001c0 64 e9 43 bd c1 73 9a bd c2 d7 0d be 72 03 4f 3e
       -0.04783 -0.075416096 -0.13851836 0.20216158
0001d0 7e 75 42 3e 64 2c 37 3e fe cf 07 be 8c 7e ae bb
       0.18990132 0.17888027 -0.13262936 -0.005325144
0001e0 eb 22 16 be be 3c 9d bd a5 d9 37 3e d5 a4 d1 3c
       -0.14661758 -0.07677601 0.17954119 0.025591293
0001f0 85 3c 9d 3d a5 79 49 be 14 c7 bf 3d b8 de 0f 3e
       0.07677559 -0.1967531 0.09364143 0.14049804
000200 aa bf 88 bd c9 d4 29 3e 66 78 b9 3d 17 c3 18 be
       -0.06677182 0.16585077 0.09056167 -0.14918171
000210 0e b1 06 be bf 61 bb 3c 5a 81 37 be ce a2 17 be
       -0.13153479 0.022873757 -0.17920437 -0.14808199
000220 06 cd c8 3d 33 b2 38 bd d7 c9 d5 3b bf b3 84 bd
       0.0980473 -0.04509182 0.0065243053 -0.06479596
000230 78 31 0a 3e f4 d4 40 3e 87 bb 1b 3e a3 74 24 be
       0.13495433 0.18831235 0.15208255 -0.16060118
000240 54 55 1c bd 2e 26 f5 3d bc ce 0f 3e 45 b7 d8 bc
       -0.038167313 0.11970173 0.14043707 -0.026454577
000250 1c 9a f9 3d c0 38 4a bc cd 0b b8 3c 57 b9 21 3e
       0.12187597 -0.012342632 0.022466565 0.15793358
000260 3d f3 2a 3e 48 43 fe bd 03 b6 d1 bd b1 00 85 3d
       0.1669435 -0.12415177 -0.10239794 0.064942725
000270 87 22 0e 3e fa e4 ea bc ab 9b 4d 3e e6 59 07 bc
       0.13880359 -0.028673638 0.20078914 -0.00826118
000280 77 69 ac bd 2c 47 14 ba 4d e8 31 be 1f 5b 96 3d
       -0.08418553 -0.00056563574 -0.17373772 0.07341599
000290 d7 11 40 be 88 c7 4c 3e 0a 8f 09 be 82 c2 1b 3e
       -0.18756805 0.1999799 -0.13433471 0.15210918
0002a0 33 96 0b be 8d 46 96 bc c6 51 e0 bd de 1a e2 3d
       -0.13631515 -0.018344188 -0.10953097 0.11040281
0002b0 8a 79 0d 3e cc b3 46 be 66 d9 39 be e0 1e 3c 3d
       0.13815895 -0.19404525 -0.18149337 0.045927882
0002c0 4b ee d5 3a 9d 23 ac 3c 86 c9 8e 3d 94 c1 bb bc
       0.0016321627 0.021013075 0.06972031 -0.022919454
0002d0 06 8d 45 3e 6b c5 1a 3c 73 09 99 bd eb fa b7 3d
       0.19292077 0.009446482 -0.074725054 0.08983406
0002e0 b5 d5 0c be 7e 73 da bd ea 41 49 3d f9 57 99 bd
       -0.13753398 -0.1066656 0.049135126 -0.074874826
0002f0 77 a2 32 be 9d a2 f9 3d 7e 61 93 3d dc a9 65 3d
       -0.17444788 0.12189219 0.071963295 0.056070194
000300 f0 1a ba 3d 3d db 3b be ce 5c c5 bd b2 46 a3 bd
       0.09087169 -0.18345352 -0.09636842 -0.079724684
000310 e4 2a 5a 3e 27 49 c4 bd a0 51 09 be 65 b9 92 bd
       0.21305424 -0.09584265 -0.13410044 -0.071642675
000320 0e ea 1f 3d 82 f1 bd 3d 63 11 2b 3e be 57 20 3e
       0.03904157 0.092745796 0.16705851 0.15658471
000330 65 5d 0b 3d d6 86 4f 3e 5c 4d 03 3e ff 98 02 3e
       0.034024615 0.2026628 0.12822479 0.12753676
000340 f5 9e 36 be 79 6c 17 3d b7 75 20 bd ba 05 33 be
       -0.17834075 0.036968682 -0.03917476 -0.17482653
000350 a4 db ee bd 29 4b 15 3e 34 1a 93 3d 20 c6 4a 3e
       -0.11662987 0.14579453 0.07182732 0.19802141
000360 51 9f 16 3e 97 86 80 3c 40 03 50 3e de c3 40 3d
       0.14709212 0.015689177 0.2031374 0.047061794
000370 39 d2 e5 bc 47 c4 b2 bd 63 a3 06 3e 58 41 c2 3d
       -0.028054344 -0.08728843 0.13148265 0.094851196
000380 04 a7 22 3e 17 a5 20 bd b4 b0 42 be 46 ba 70 3d
       0.15884024 -0.039219942 -0.1901272 0.058771394
000390 f0 26 a3 3c aa ba 06 be ab 99 8c 3d 29 99 cb bc
       0.019916028 -0.13157144 0.06865247 -0.024853306
0003a0 ca 9e 46 3e 83 c2 f7 3c f1 36 c7 bd c0 e6 35 3e
       0.1939651 0.030244118 -0.09727276 0.17763805
0003b0 e7 44 d0 3c c9 88 18 bd 7f 24 af 3d 8c 29 5a 3e
       0.02542348 -0.037239823 0.08551883 0.21304911
0003c0 a3 5b e7 3d 36 86 21 3b 57 4f 39 3e a5 97 8f bd
       0.11296775 0.0024646646 0.18096672 -0.07011346
0003d0 de ed 3c 3e f8 ce cd bd b0 8d 9a 3c b3 78 49 3e
       0.18450114 -0.10049242 0.01886639 0.1967495
0003e0 b6 ab b5 3d 62 38 2f bd 98 fd f5 3d 3d 4e f1 3d
       0.08870642 -0.04277838 0.1201126 0.11782501
0003f0 d3 7e 3a be b4 07 9e bb 97 4e 1e be 7c 2d 4d bd
       -0.18212442 -0.0048226956 -0.15459667 -0.050092205

l2.weight f4 [300, 400]
000000 c4 f3 ad 3c 2b 5f 41 bd 9e 05 13 bd dc d5 0f bd
       0.0212344 -0.0472099 -0.03589403 -0.03511606
000010 40 78 a8 3c ec ec f5 bb de d7 53 bd 17 e5 30 3d
       0.020565152 -0.00750505 -0.05171954 0.043187227
000020 da 83 55 3c 20 5d 3c 3d 7f b2 cf 39 05 25 ba 3a
       0.013031924 0.04598725 0.00039615107 0.0014201707
000030 ed 67 f7 3c 90 55 0b bd 0c 74 29 3d ec 62 1b bd
       0.030200923 -0.034017146 0.041370437 -0.037936136
000040 80 80 94 3b 63 15 1d bd 02 b2 07 bd aa cd 05 3d
       0.00453192 -0.038350474 -0.033128746 0.03266684
000050 91 6c 9b bc d5 88 79 bc 82 bb 08 3d 21 d0 30 3d
       -0.018972667 -0.015230377 0.033381946 0.043167237
000060 70 91 50 bd 5b 93 db bb 27 ed 69 3c ef 57 2d 3d
       -0.05091995 -0.0067009158 0.014277733 0.042320188
000070 c0 0c d3 bc 0f 36 b5 bc ca ec 0f bd a0 50 51 3c
       -0.025762916 -0.022120504 -0.03513793 0.01277557
000080 f8 ac d4 3b f5 26 d9 bb fb ad 32 bc ec 69 26 bd
       0.006490346 -0.0066269585 -0.010905738 -0.04062836
000090 fa d8 d7 bc 8a c7 9b bc 93 2e 57 3c 4b b8 86 3c
       -0.02634858 -0.019016046 0.013133663 0.0164453
0000a0 4a cc 8f 3c 07 54 1c bd 1d 53 1e bc 49 bf 7b bc
       0.017553467 -0.038166072 -0.00966337 -0.01536543
0000b0 71 b6 6c 3d 9c 67 f8 3c ed 9c 30 bd e3 0f e1 bc
       0.057791177 0.030322842 -0.043118406 -0.027473396
0000c0 4b 81 32 bd dd 55 96 bc 2c f1 4a bd dc d0 90 3c
       -0.043580335 -0.01835149 -0.049546406 0.017677717
0000d0 9e 7d e4 bc c2 38 fd bc 29 21 64 bb 15 a2 a8 bc
       -0.02789193 -0.030910853 -0.0034809804 -0.0205851
0000e0 28 b7 1a 3d 91 b5 21 3d ca d0 4e bd 1d 07 88 3c
       0.037772328 0.039479796 -0.050492086 0.016604954
0000f0 c0 6e 9d bb 31 e1 a7 3c 5a 46 c9 bc e7 df 3c 3b
       -0.004804462 0.020493122 -0.024569679 0.002881998
000100 cd 2e 75 ba 49 29 3a 3c 3e 4f 9c 3c e5 af 60 3c
       -0.0009352982 0.011362382 0.019080754 0.0137138115
000110 cd 13 c9 3b 32 7d 36 bd c2 90 0d bd 8d 58 e9 bc
       0.0061363936 -0.04455299 -0.03456188 -0.028484607
000120 44 e2 63 bd 44 74 2c 3d 2a 51 e9 bc da 04 20 bd
       -0.055635706 0.042103067 -0.028481085 -0.039067127
000130 40 5d e9 bc 3d c8 ae 3c 65 62 00 bd 92 0e 43 bd
       -0.028486848 0.021335715 -0.031343836 -0.047621317
000140 b0 9a 30 bd fe 71 a8 3b e7 0f 06 bb f8 c7 38 bd
       -0.04311627 0.005140542 -0.0020456256 -0.04511258
000150 95 0a 24 bd 07 7c 31 bd 86 68 3a 3c d2 72 89 3c
       -0.040049154 -0.043331172 0.011377459 0.016778383
000160 af 22 3a 3b e8 a2 b2 bc 55 a4 05 bd ae 06 64 3c
       0.002840202 -0.021806195 -0.032627422 0.013917608
000170 58 f3 8d bc c0 0f 63 bc 13 0d b6 bc d3 5f 0e 3c
       -0.01732795 -0.013858736 -0.022223031 0.008689838
000180 d6 c0 c0 3b f8 43 28 3d 57 08 1e 3d ba 20 53 bc
       0.005882363 0.041080445 0.038582172 -0.012886221
000190 73 80 f3 3b 30 8f 20 bd 72 ad 31 bd 59 e8 11 3d
       0.007431084 -0.039199054 -0.0433783 0.035621975
0001a0 b7 9c 2c 38 37 67 fb bc fe 37 9e 3c 14 e8 6b 3c
       4.1153948e-05 -0.030688865 0.019313809 0.014398593
0001b0 e6 d7 47 3c 49 f7 7a 3c 4d 01 2f 3b 4f fb 14 bd
       0.01219747 0.015317746 0.0026703656 -0.03637248
0001c0 78 10 36 bd 82 02 30 3d fa 54 ee 3c 89 bb 37 bd
       -0.0444493 0.04297114 0.029093254 -0.04485658
0001d0 0d 90 08 3d f4 70 57 bd a9 bc e0 3c 03 31 ee 3c
       0.033340503 -0.052597955 0.02743371 0.029076105
0001e0 1d 9d d1 3c de a1 7b 3c 99 ed 13 bd 87 a8 af bc
       0.025587613 0.015358416 -0.036115263 -0.021442665
0001f0 76 ea a0 3b bd 4a 63 3c d7 b0 1b 3d 7e 7d 67 bb
       0.0049107624 0.013872799 0.038010444 -0.0035322602
000200 df c0 71 3c bd 86 32 bd ad 46 26 bc 8d 95 f3 3c
       0.014755457 -0.043585528 -0.010148686 0.029734397
000210 77 69 e6 ba a9 83 0a 3d 53 05 3c bd a3 8f 20 bd
       -0.0017579038 0.033816967 -0.045903515 -0.039199483
000220 bd c8 21 3c 90 df 01 bc 79 5f 45 bd 0b ec 7d 3c
       0.00987452 -0.007926837 -0.048186753 0.015498172
000230 1f c6 76 bb b3 38 cf 3b ab 9b a8 3b 68 23 25 bd
       -0.003765471 0.0063238977 0.00514551 -0.04031697
000240 78 2a 21 bd c4 94 3b bd 4a 9d f9 3c 38 55 08 bd
       -0.039347142 -0.04579617 0.03047051 -0.033284396
000250 20 31 21 3d 27 ce 82 bc 14 a6 ab 3b c6 bd 2b 3d
       0.03935349 -0.015967442 0.005238304 0.04192903
000260 88 c5 05 bd f3 28 5a bd 5f 7a c0 3a 5b ac 2b bd
       -0.032659084 -0.05326171 0.0014684907 -0.041912418
000270 82 73 b2 3c cb d7 65 3c 50 e0 f8 3c 87 21 34 bc
       0.021783594 0.0140285 0.030380398 -0.010994322
000280 e7 72 1d bd 91 af 54 bd a7 47 04 bd 83 85 1e 3d
       -0.038439658 -0.051925246 -0.032294895 0.038701545
000290 91 a0 65 bc fa 56 dc bb 7c ca 86 bc 68 6c 00 bd
       -0.014015333 -0.0067242356 -0.016453974 -0.031353384
0002a0 e9 99 48 3d c4 da 99 bc 4b a0 f5 bc cd 98 25 3d
       0.048974905 -0.018781073 -0.02998366 0.040428925
0002b0 48 42 c5 3c b7 4b da 3c bc b8 f5 3c 38 03 1a bd
       0.024079457 0.026647432 0.029995315 -0.037600726
0002c0 0c c6 c6 3c b4 7b a1 bc d9 57 82 bb 2b 50 91 3c
       0.024264358 -0.019712307 -0.0039777574 0.017738422
0002d0 96 be b7 bc b8 fe 30 3d 1c 94 b7 bb f7 3a bc 3c
       -0.022429746 0.04321167 -0.005602373 0.022977335
0002e0 b8 91 a3 ba 43 64 45 bd 98 5e 12 bd d0 a7 2a bd
       -0.0012479341 -0.04819132 -0.035734743 -0.041663945
0002f0 d9 05 d9 37 bd 56 21 bd 82 bb 3a bd 94 a0 9f 3b
       2.5871139e-05 -0.03938936 -0.045588978 0.0048714373
000300 1e 23 4b bd cc 64 07 bd b8 64 1c bd 05 a8 99 3c
       -0.049594037 -0.03305511 -0.03818199 0.018756876
000310 35 ef 23 3d f4 cb 3e 3c 30 3d e5 bc b8 03 1b 3d
       0.040023047 0.011645306 -0.027983278 0.037845343
000320 e2 ba 26 3d 19 5f 9e bc e8 0c ff 3c f7 98 de 3b
       0.04070557 -0.019332455 0.031134084 0.006793137
000330 76 69 26 bd 5a ae 9a bc f2 fd 3a bd bc 6a 17 3c
       -0.04062792 -0.018881965 -0.045652337 0.009241756
000340 60 a7 b2 3c 21 5b 61 bd 7c a8 68 bc cd 05 8e 3a
       0.021808326 -0.055018548 -0.014200326 0.0010835469
000350 bb 11 0c 3d 17 8d 07 bd c4 fc 0e bc c7 f3 ec bb
       0.034196597 -0.033093538 -0.008727256 -0.007231209
000360 79 0f fa bc db 78 e3 bc 2d 48 9d bc 49 48 aa bc
       -0.030524956 -0.02776759 -0.019199455 -0.020786421
000370 4a d7 83 bc 73 a4 9c 3b 95 79 23 bc 90 25 f7 bc
       -0.016093869 0.004780346 -0.009977718 -0.030169278
000380 64 c9 c8 3c 47 83 12 3d d3 6b 00 bc 2f 4d 7a bc
       0.024510093 0.035769727 -0.007838207 -0.015277191
000390 5c 8d 5f bd 8d 92 2d bd b2 b0 04 bc 5f ee 7b bc
       -0.05457817 -0.04237609 -0.008098768 -0.015376656
0003a0 ea 24 10 3c 6a 42 fb bc 77 73 16 bb f8 54 7c 3c
       0.0087978635 -0.030671317 -0.0022957006 0.0154011175
0003b0 5c 70 31 3d c5 2d 09 3d 94 1c 1e bd bd a7 23 bc
       0.043320045 0.033490915 -0.038601473 -0.009988722
0003c0 19 f3 65 bc cf b5 f3 bb f6 aa 76 3c ce a8 d4 bc
       -0.01403501 -0.0074374448 0.015055409 -0.025959399
0003d0 95 dc 86 bc 6e e4 60 bd a1 27 c1 bc b2 dc 48 bd
       -0.016462604 -0.054905348 -0.023578467 -0.049038596
0003e0 66 92 42 3c b5 a5 1d bd 5a 66 ca bc 16 56 2c bd
       0.011875724 -0.03848811 -0.024707008 -0.042074285
0003f0 50 1c 04 3d a4 1a a8 bc d6 36 1a 3d 93 88 cb bc
       0.032253563 -0.020520516 0.037649952 -0.024845397

l2.bias f4 [300]
000000 1f 10 bc 3a 10 a8 16 bd a7 59 36 bd f4 1f 12 3d
       0.0014348066 -0.03678137 -0.044519093 0.035675004
000010 63 19 6a 3d 76 61 8a 3c a9 d6 bb 3a 78 a1 38 bc
       0.057153117 0.016892176 0.0014330941 -0.011268966
000020 7f 77 32 bd 96 3f 30 bc df 89 8a bb 24 05 cf bc
       -0.04357099 -0.010757348 -0.0042278613 -0.025271006
000030 f8 16 c8 bc 1c f8 33 bd d9 ff fd bb 38 22 3d 3d
       -0.024425015 -0.043937787 -0.0077514467 0.04617521
000040 22 b6 88 3c b1 74 de bc f4 62 2f 3d b5 0f 03 bd
       0.01668841 -0.027155252 0.04281898 -0.0319974
000050 c1 f3 0d bd 73 d6 0f bd ad 65 04 bd 83 fa ba 3c
       -0.03465629 -0.035116624 -0.032323528 0.022824531
000060 87 64 12 3d 9c db 90 bb ea 4b 0c 3c 4a 76 3f bc
       0.0357404 -0.0044207107 0.008563021 -0.011685917
000070 1a fa d5 3c 03 30 21 ba 4e ec bd bc 5f 27 ae 3c
       0.026120234 -0.0006148817 -0.023183968 0.021259008
000080 a1 9e 7b 3d ad f8 d7 bc a2 47 bc 3a 12 4d 26 3d
       0.061430577 -0.026363695 0.001436461 0.040600844
000090 a4 09 41 3d 4b 01 e2 bc 20 97 ce 3c c7 c5 d2 bc
       0.047128335 -0.027588507 0.025218546 -0.025729073
0000a0 c0 22 4b bd ad c1 83 bc cb 50 b5 bc 7e c8 9d bb
       -0.049593687 -0.016083563 -0.022133252 -0.0048151603
0000b0 0f da 4e 3c ee 8d 4a ba 55 2a 5a bd a8 27 23 bd
       0.012625231 -0.00077268376 -0.053263027 -0.03983274
0000c0 55 a4 17 bd d5 41 f8 3c 66 65 8a 3b 65 6d 16 bd
       -0.037021954 0.030304829 0.0042235134 -0.03672542
0000d0 c6 00 e8 3a 0f 9a fb bc 58 c0 31 bc 81 45 3f 3d
       0.0017700426 -0.03071311 -0.010849081 0.046697143
0000e0 8a 17 77 bc c2 21 4c 3d 04 90 6a bd 15 64 c4 bc
       -0.015081296 0.04983688 -0.05726625 -0.023973504
0000f0 83 d8 4c 3d 34 1b 0a 3d fc 94 06 bd 69 74 df bc
       0.05001117 0.03371735 -0.032856926 -0.027277188
000100 c9 b5 a6 3c 9c 2c 8b 3d 37 d7 fe ba 8d 68 c0 bc
       0.020350354 0.06795618 -0.0019442801 -0.023487354
000110 48 4c 45 3c fd f6 2e bc a2 6b 50 bd 8d 28 9b bb
       0.012042113 -0.010679004 -0.050883897 -0.0047350586
000120 4a 06 60 bd 9e 6d ba bb 38 d4 23 bd dd 64 67 3c
       -0.054693498 -0.005689337 -0.03999731 0.014123169
000130 de 7d 41 bd 49 c6 2e bd fb 85 23 3d 37 fb ae bc
       -0.047239177 -0.04266957 0.039922696 -0.021360023
000140 ac d0 34 bd a8 b9 5c bd 5e 53 45 bd 6e a3 e3 3a
       -0.044144318 -0.053887993 -0.04817521 0.0017367431
000150 6a 43 46 3c 82 18 b6 3c 35 d4 41 bd 35 c1 8d ba
       0.012101034 0.022228483 -0.047321517 -0.0010815026
000160 9b 0d ce 3b 5e ff 08 3d 7d 96 ac 3c 59 f5 5f bd
       0.006288243 0.033446662 0.021067852 -0.05467734
000170 96 75 fd bc d7 bd af bc 9a f2 83 3d a4 1a 01 3d
       -0.030939858 -0.021452827 0.06442757 0.031519547
000180 df 9e c9 3a 16 0e 12 3c d1 0c c4 3c ca 05 87 bc
       0.001538243 0.008914491 0.023931893 -0.016482253
000190 b0 65 59 bb 92 a7 1f 3d f1 10 28 bd e8 6f 5f bd
       -0.0033172183 0.038978167 -0.04103178 -0.05455008
0001a0 de dd fd 3c b1 82 e9 bb 1f 08 41 bd bd a7 38 bd
       0.030989584 -0.0071261753 -0.047126886 -0.045081843
0001b0 5f 28 e7 3c 9c 54 16 bd 12 50 79 bb d3 5e b2 bb
       0.028217493 -0.036701784 -0.003804211 -0.005443433
0001c0 d8 ab 78 3d b1 07 26 bd ed e9 89 bc 0a 32 6c bc
       0.060710758 -0.04053468 -0.016835177 -0.014416227
0001d0 cd ec c9 b8 cf 46 df 3c 3a 83 a1 3b ac 8d 87 bc
       -9.6285345e-05 0.027255444 0.0049289735 -0.016547047
0001e0 77 73 38 bd e5 92 24 bc 2e 9a 8d ba 62 9d 25 3d
       -0.04503199 -0.010044788 -0.0010803395 0.040433295
0001f0 fe ed 3f 3c 7e 69 55 3d aa fe 52 3d 33 88 28 bd
       0.011714457 0.05210256 0.051512398 -0.041145515
000200 11 c0 4f 3c a0 62 53 bd 44 0d 8e 3d df 0f 65 bc
       0.01268007 -0.051607728 0.06936124 -0.013980835
000210 4f 57 c1 3c 35 54 45 3d 60 59 83 3a cb 0b 44 bd
       0.023601202 0.04817601 0.0010021143 -0.04786281
000220 d7 af 41 bd a8 26 bc bc 8e 6c bf bc 42 aa 07 bd
       -0.047286835 -0.022967651 -0.023367193 -0.033121355
000230 20 d4 80 3c 0f 82 1a 3d 7d 02 98 3c 73 f7 54 bd
       0.01572615 0.03772169 0.018555874 -0.0519938
000240 26 86 fc 3c 9c 21 46 bd ec 39 e1 3c d7 d4 80 3c
       0.030825686 -0.048371896 0.02749344 0.01572649
000250 c0 9d 3e 3d c5 20 97 3a 4d 0b c5 3c e0 0d 1d bd
       0.04653716 0.0011530152 0.02405324 -0.03834331
000260 84 72 ef 3b a2 d5 ff bb 4a 74 9c 3c de d3 92 bc
       0.0073073525 -0.0078074494 0.01909842 -0.017923292
000270 d8 96 72 3a f2 fa ab bb c5 0f 8d 3c 9c 13 7a 3c
       0.0009254045 -0.005248421 0.017219434 0.015263464
000280 32 c4 05 bc 39 71 2c bd 7a 05 6a bd a6 c9 a1 bc
       -0.008164452 -0.042100165 -0.05713413 -0.019749474
000290 08 bd 4e bc 19 18 03 3d 96 65 b2 3c 61 01 c2 3c
       -0.012618311 0.032005403 0.021776956 0.023682298
0002a0 77 9e 0e 3d 86 d7 5c bc 81 c8 2d bd 8b c3 97 3a
       0.034819093 -0.013479119 -0.042427544 0.0011578662
0002b0 f8 3f 0a 3a 8d 0b ae bc 4f bf f3 3c e0 3c 0a bc
       0.00052738143 -0.021245742 0.029754309 -0.008437365
0002c0 84 2f ec bc a7 5c ab bc 7f ef 8f bc 29 05 bc 3c
       -0.028831251 -0.020918204 -0.017570255 0.02295168
0002d0 b3 06 3b 3d 90 2a 03 3b fa 9b 19 3c 98 50 b1 ba
       0.045660686 0.0020014383 0.009375567 -0.0013528047
0002e0 4d e2 6b bc f8 85 08 3d cf 05 21 3d 4e 39 8c bc
       -0.014397216 0.033330888 0.03931218 -0.017117169
0002f0 39 7d 12 3d 7b db 9f 3c 7d 30 74 3b ab 62 02 bd
       0.035763953 0.019513836 0.0037260347 -0.03183238
000300 8a c0 26 3d b0 32 20 bd 37 c3 45 bd 49 d5 cd 3b
       0.040710963 -0.03911084 -0.048281875 0.006281529
000310 dd 52 d2 3c 0d f7 93 bc e1 4c 09 3d 09 01 45 3d
       0.025674278 -0.018062139 0.033520583 0.04809669
000320 33 53 17 b8 9d c6 a4 3c 62 92 29 3d 1a 86 09 3d
       -3.607869e-05 0.020114237 0.041399367 0.033575155
000330 f3 d9 44 bc 5e 05 09 bd 03 61 1e 3d e5 64 2b bd
       -0.012014854 -0.033452384 0.038666736 -0.041844267
000340 a0 bf 07 bd 8e fb ee 3c ba 64 c8 bc 08 82 34 3d
       -0.033141732 0.029172685 -0.024462093 0.04406932
000350 7d 05 00 3c 45 ed 09 3d 4d 34 ad 3c 8c a8 fc bc
       0.0078138085 0.033673543 0.021143103 -0.030842088
000360 24 1a 63 bc 12 c2 81 bc 06 80 9e bc 9b 7a 19 bd
       -0.013861213 -0.01583961 -0.019348156 -0.03747044
000370 db 99 1d bd 82 d2 17 bb 49 57 39 3d fe 7e 06 3d
       -0.038476806 -0.0023166244 0.045249257 0.032835953
000380 01 ce 5c 3c 28 7b e6 3b e2 cb b9 3c 75 db ae 3c
       0.0134768495 0.0070337243 0.022680227 0.02134488
000390 c4 85 4c bd 08 88 1b 3d 07 57 63 3d ab 29 d2 bc
       -0.049932256 0.037971526 0.055502918 -0.025654634
0003a0 9f 68 00 3d 02 1a 32 bd 4d b4 e2 bc ff f3 c4 3c
       0.031349774 -0.043481834 -0.027673865 0.024042128
0003b0 a7 51 ff 3c 1c 01 02 bc 0d ed 1c bd 7f 0c 86 bb
       0.031166865 -0.007934835 -0.038312007 -0.004090845
0003c0 3c ee 49 bd 14 82 3b bd 2b 53 51 bd 6a 66 3b bd
       -0.049299464 -0.04577835 -0.051104706 -0.045751967
0003d0 2e e1 2c bd e1 b9 fa bc 84 30 58 bc 9d 51 3b 3d
       -0.042206936 -0.030606212 -0.013195161 0.04573213
0003e0 8b 5b af 3b 33 d4 90 bc 39 34 df 3c 9b 19 7d 3d
       0.005351489 -0.01767931 0.027246581 0.061791997
0003f0 c9 bd 60 3d 7e 7c 84 bc 52 93 41 3c 8b 30 0e 3d
       0.054868493 -0.016172644 0.011814909 0.034714263

l3.weight f4 [4, 300]
000000 32 93 25 3d 01 35 bc 3c 89 81 b0 3c ae b1 3a 3d
       0.04042358 0.022974493 0.021546142 0.045579605
000010 73 50 13 3d 59 50 d2 3b 86 23 2e bd c8 cd 17 bd
       0.035965394 0.0064182696 -0.042514347 -0.037061483
000020 11 5e c7 bc d0 a9 cd bc a3 1d 92 3b 76 47 14 bd
       -0.024336847 -0.025105387 0.0044590994 -0.036200963
000030 d5 a4 6e 3b 11 06 28 3d f1 7e d1 3c 9d 6f 7a bd
       0.0036414166 0.04102141 0.025573226 -0.0611416
000040 f2 4d 10 3d 14 94 28 ba 55 07 05 3d 8b ad 0a 3d
       0.035230584 -0.0006430757 0.032477695 0.03385691
000050 bd 2f 31 bc 33 75 9f bc 97 46 88 3c 07 23 39 3c
       -0.010814604 -0.019465065 0.016635222 0.011299855
000060 ae a7 fd 3b 37 ec 15 3d e4 96 d8 bc fd f8 ed bb
       0.0077409362 0.036602225 -0.026439138 -0.0072623477
000070 cb 8b 8b 3b 02 dc 08 3d 81 e4 c6 3c 0d 6f 5c 3a
       0.004258608 0.03341294 0.024278881 0.0008408882
000080 36 16 cd bc 60 d5 74 bc 38 57 c4 bc 55 da fb 3a
       -0.025035005 -0.014943451 -0.02396737 0.0019214848
000090 08 e5 44 bc 05 9c 96 3b 82 68 ad bc 3b e0 31 bb
       -0.012017496 0.0045962357 -0.021167997 -0.0027141708
0000a0 b5 f3 25 3d 97 fe 4e 3c ee 4e 17 3d 28 db 3a bd
       0.04051562 0.012633941 0.036940508 -0.04561916
0000b0 e5 dc 76 ba d6 01 a6 3c c0 0f 15 3d 08 5c 18 bc
       -0.0009417071 0.020264547 0.036391973 -0.009299286
0000c0 16 f5 4c 3d 76 8b 0f 3c d5 19 81 3a c2 e5 5d bc
       0.05003842 0.008761277 0.0009849617 -0.013543548
0000d0 8c 5c bd 3c 74 83 d9 3b e6 e4 8b bc 1a f4 25 3d
       0.023115419 0.006637985 -0.01707692 0.040515997
0000e0 35 bb 3a 3d a1 34 2b 3d b2 ba da bc 79 f7 a7 3c
       0.04558869 0.041798238 -0.026700351 0.020503746
0000f0 b9 7b e3 3c 3d 18 98 3c ff 83 18 3d fe 4c 73 3b
       0.027768956 0.018566245 0.037235256 0.0037124748
000100 d8 c5 5d bc c7 cc 0a bd c2 ed fc 3c 51 53 9f bb
       -0.013535939 -0.033886697 0.03087509 -0.004862227
000110 8f 9d 8b bc bb 88 b4 39 50 53 b9 bb ea 6d a5 b9
       -0.017042903 0.00034434148 -0.0056556836 -0.00031553145
000120 aa c9 44 3d 91 1d 44 bc 41 b7 7d bd d6 35 0f bd
       0.048043884 -0.01196994 -0.061942343 -0.03496345
000130 7e 23 40 3d fd e8 06 bd 1d 9a 2b bd c7 27 48 3c
       0.046908848 -0.03293704 -0.04189502 0.012216515
000140 04 4f a1 bc c7 f1 3b 3c 0d 78 f8 bc 2e 53 91 3c
       -0.019690998 0.011471218 -0.030330682 0.017739858
000150 23 86 66 bd 98 fa df 3b 0c 1c 1d bd de 67 8f bc
       -0.056280266 0.006835293 -0.038356826 -0.017505582
000160 fe 15 32 bd f6 95 bf 3c 43 fb ff bc 5a 01 00 3d
       -0.043478005 0.023386937 -0.03124774 0.03125129
000170 f9 c1 37 bc 77 54 66 bd 00 78 a3 bc a4 5a 57 bc
       -0.01121568 -0.056232896 -0.019954681 -0.013144169
000180 41 33 b8 3c 50 41 68 38 b0 81 e6 bc 52 de 2f 3d
       0.022485377 5.5373937e-05 -0.028138012 0.04293663
000190 1e 36 f1 bc 83 d2 14 3d b9 6c fd bc 20 d9 21 bd
       -0.02944475 0.036333572 -0.030935632 -0.039513707
0001a0 16 d1 30 3d d4 ec 69 bd 26 ce 32 bd d3 ab 37 3d
       0.04316815 -0.057110623 -0.04365363 0.0448416
0001b0 1a 55 cd bc 78 d2 e6 bc 3f eb 85 bc 4a c2 94 3c
       -0.025064994 -0.028176531 -0.016347526 0.01815905
0001c0 38 d5 35 3d 01 6e 58 39 f4 d7 bd 3c d9 14 68 bc
       0.044392794 0.00020640345 0.023174264 -0.014165127
0001d0 f0 4c 57 3d 08 24 1c 3d 95 d8 a6 3c 66 a0 3e bd
       0.052563608 0.0381203 0.020366946 -0.046539687
0001e0 c1 79 1e 3d 1d 1d 5b bd 87 82 c0 bc 5b ec 34 3b
       0.038690332 -0.05349456 -0.02349974 0.00276067
0001f0 18 05 f3 3c ff a2 4f bd df d1 37 3d b4 ab 77 3d
       0.029665515 -0.050692555 0.044877883 0.060466483
000200 cb b2 40 3d 91 fd bd 3c dc 85 9b bc 36 16 2b 3c
       0.04704551 0.023192199 -0.018984728 0.010442307
000210 f5 7d e4 bc 59 ab 32 3d 86 b1 aa 3c 83 5f 8e 3c
       -0.027892092 0.04362044 0.020836603 0.017379528
000220 99 3b b5 3c c8 ed 04 bd 8b 37 a0 38 7e d4 20 bc
       0.022123145 -0.03245333 7.63974e-05 -0.009816287
000230 f8 d1 45 bd 3a 99 d1 bc 1d 94 62 bd 6b 02 85 3c
       -0.048295945 -0.02558576 -0.055317033 0.016236505
000240 9d c6 5f bc 70 a9 93 3c 1d c6 5f bd ce 10 18 3d
       -0.013658193 0.01802513 -0.054632295 0.0371254
000250 a2 0d db bc 8e c8 b2 3c 82 b5 c6 3c 9d b1 a0 3b
       -0.0267399 0.021824148 0.024256472 0.0049039857
000260 dc 11 60 3d 70 ea ff ba 24 7c c7 3c c4 7a a3 bc
       0.054704532 -0.0019524824 0.024351187 -0.019956
000270 38 11 39 bd 49 bd d0 3b 5b 3c 47 bd d1 1b fb bc
       -0.045182437 0.006370221 -0.048641544 -0.030652912
000280 57 98 4b bd c9 63 ac bc 8a b7 6f bd a0 8f 17 bd
       -0.04970583 -0.021043675 -0.058524646 -0.037002206
000290 60 15 ef 3b d3 f0 42 3d 47 94 10 bd 21 6c 34 bd
       0.0072962493 0.04759295 -0.03529766 -0.044048432
0002a0 03 ec 53 bd 13 4c 2f bd 85 01 c3 bc f2 45 fa bc
       -0.05173875 -0.04279716 -0.023804436 -0.03055093
0002b0 93 c3 02 3c b7 74 29 3d aa 22 07 3d d9 0e 55 3d
       0.007981199 0.041371074 0.032992043 0.052016113
0002c0 ff 27 5e bd bd 40 23 3d 62 70 e5 bc ce 00 25 bd
       -0.054237362 0.03985666 -0.02800769 -0.04028397
0002d0 ce a7 70 bd ba c6 04 3d 6b 74 41 3d e0 26 95 3c
       -0.05875378 0.032416083 0.047230165 0.018207014
0002e0 05 69 cb 3c b8 dc 01 3d fe 19 1c 3d 8e 88 63 3d
       0.02483035 0.031704634 0.038110726 0.05555015
0002f0 f0 7f 38 3d 5a 23 f3 3c 89 10 8c bc 1e 6e cd 3c
       0.045043886 0.029679943 -0.017097728 0.025076922
000300 7b ae 65 3c e6 b6 24 3d 81 a4 3c bd 82 d3 57 bd
       0.01401865 0.040213488 -0.04605532 -0.052691944
000310 d7 87 e4 3c 7a 74 f8 bb 2b c1 0f bd 98 f2 bf 3b
       0.027896805 -0.0075822445 -0.03509633 0.005857777
000320 ed 86 ea bc 0e 8f 87 bb 2a 02 f8 bc 03 28 34 3c
       -0.02862879 -0.0041369265 -0.03027447 0.010995868
000330 e5 fe ab bb d2 46 be bc ac ad 88 3b 5f 00 0e 3b
       -0.0052488917 -0.02322713 0.004171094 0.0021667702
000340 dc eb 4d 3c a8 97 4c 3d 1e 65 8a 3b f5 32 e1 bc
       0.01256844 0.04994932 0.00422348 -0.027490119
000350 8e 4c fe 3c a7 62 1a bb 26 6b d0 3c c6 ce 0e 3d
       0.031042363 -0.0023557337 0.025441717 0.034865163
000360 16 e1 57 bd 03 51 d0 bc d1 fc 1a 3c 33 11 e2 3c
       -0.052704893 -0.025429254 0.00945969 0.027596092
000370 e0 fa 09 bd a5 10 91 bc e6 e9 10 bd 87 f1 4e bd
       -0.03368652 -0.017708132 -0.035379313 -0.050523307
000380 e9 19 5e bc 0a dd fb bc 44 50 6c 3c a6 f9 49 bc
       -0.013555982 -0.030745048 0.014423434 -0.012327587
000390 21 65 71 bd 5f 55 38 ba 86 57 e6 3c 6b 2a 47 3d
       -0.058934335 -0.0007031764 0.028117906 0.048624437
0003a0 7f 67 4f bd 33 b5 7c bd c2 fe 15 bd c0 4d 26 b9
       -0.05063581 -0.061696243 -0.03661991 -0.00015859958
0003b0 c6 2e 21 ba 97 2c 5d bd 48 1e 35 bb 41 e4 b3 3b
       -0.00061486324 -0.053997602 -0.0027636457 0.0054898565
0003c0 cd 32 3a bd b1 b7 40 3d 65 c4 67 bc 66 51 43 bd
       -0.045458604 0.04705018 -0.014145945 -0.04768505
0003d0 7e 19 f0 3c 45 22 28 bd 7c 8a 03 3d 45 80 0b bd
       0.02930903 -0.041048307 0.03211449 -0.034057874
0003e0 a3 fc 5a bd e4 60 34 3d 28 7f 91 bc 30 0b 93 3c
       -0.05346359 0.044037715 -0.017760828 0.01794967
0003f0 f4 ba 38 bd 30 0d 9f ba 0e dd 12 bd 03 95 19 bd
       -0.045100167 -0.0012134667 -0.035855345 -0.037495624

l3.bias f4 [4]
000000 62 84 1b 3d 51 f0 36 3c fb 8d 14 bc e2 ba 8f 3d
       0.037968047 0.011165694 -0.009067054 0.07018067
